original_motion_optim_inversion_old/10000_inverse_optim.pth (torch, 29912 bytes, 1 tensors)

W f4 [1, 14, 512]
-7.82813 0.2688582 9.065661 2.0389323 -3.933083 -1.3350549 0.9406571 2.9109871
-2.0160024 2.5217268 1.5247973 -1.376033 -0.27306214 1.1358111 2.5809941 -4.108121
-2.4484012 -3.252567 -2.6828086 -1.4003483 -1.0861902 -1.3458737 2.9094667 2.3337765
-2.5027106 1.3971996 -0.7489282 8.228617 -0.97424585 -0.5531421 3.8558238 0.94837064
-7.091965 0.40981343 -3.3177822 2.1110895 -6.3545046 5.467508 -0.09540047 -0.24665865
0.050899673 -0.016289826 -2.7092369 1.8074791 -0.77076447 0.10004747 -4.484743 -5.2985296
-1.2625533 -0.44410592 -2.588395 -5.9875665 -1.2386943 -5.0693345 -0.17497933 -3.0136983
2.7678623 -10.310931 0.21839336 -1.0083238 -2.4938996 -6.789818 0.605348 -5.9967637
-2.4793124 3.2452564 -0.39363194 -0.67356783 -0.42480305 -1.6246632 4.205054 -1.6325848
0.02239666 -0.12849891 3.0899713 0.7302973 0.5384486 3.783178 3.3328676 -1.2895463
-3.3992145 -2.3136375 0.4105243 -0.6413876 1.4691604 0.6578591 -0.17003003 -6.1310673
6.025853 3.5694332 -2.319244 5.800928 3.445797 -6.549888 -1.2737296 2.9548876
2.7605069 0.9159206 2.093173 5.9245195 2.14361 1.4600207 6.640244 -1.0941
-6.881144 -0.55432 0.08981016 0.95994806 -10.338572 0.9135793 -3.5744407 3.0440445
-1.0137442 -0.47258213 -0.10636638 -0.28166753 -4.432847 4.3687286 4.3041387 -0.664577
4.9040847 4.6871758 2.3885217 4.2424254 3.482328 4.575246 -3.8029807 -3.9804454
-7.6634393 0.5924724 -2.013293 -1.5145155 8.361287 2.334331 2.7555478 0.17944595
-5.5739717 -1.2176669 -2.4694915 -1.3291237 4.4038606 2.0163865 1.533331 -0.006911779
0.82367104 1.3290783 -0.8132081 -0.26187724 -0.5655377 -5.4767146 5.5142255 -1.9575237
-1.149108 9.464118 2.696289 1.187568 -1.0638381 1.2285093 -2.5542896 0.56324613
-3.6142874 -1.2560209 0.76316965 6.1294117 -2.9922721 2.6308858 0.44459265 -3.3540213
-0.35374 0.032935534 -1.7649746 3.557712 -1.8117127 -0.22693647 3.8027356 1.7332464
2.1980753 4.7248044 -0.9280117 3.1356876 -0.2195607 3.3914444 -4.24164 -0.19751295
-1.4878824 1.9372455 5.7124825 -3.1544828 -5.9319305 -2.3163042 3.9781857 -0.99515295
0.4990278 -0.22605321 4.2557917 6.2691526 -0.70253223 0.48257443 -3.0777392 0.08057234
-7.0818176 -0.058779646 -5.7275624 -1.6799585 -2.1593468 -8.617529 7.487375 -6.6578994
0.60710573 0.84888893 -2.8060324 3.2769756 -3.3826725 1.3739891 -8.24052 1.0023311
0.06663432 -2.3566637 -1.2623855 -3.9131439 5.9368734 -3.7386684 -1.4440534 1.4085704
1.282329 0.5890321 -4.517963 -7.370739 -1.8676968 -2.24783 1.7773759 -3.568376
-0.81311107 10.420277 3.1366954 -0.70262754 -0.41064185 -11.476104 -2.669171 2.0521863
-2.5278294 -0.4426278 -1.8707246 0.326158 -2.2285917 1.1854848 -4.5784583 2.8219063
1.7998871 -5.174102 -4.3802137 1.6972897 -4.927517 4.167583 -3.263917 4.0522046
00000000: 0a80 fac0 c8a7 893e f30c 1141 de7d 0240
00000010: a2b7 7bc0 14e3 aabf e7ce 703f 9d4d 3a40
00000020: 2f06 01c0 f963 2140 8f2c c33f d921 b0bf
00000030: cdce 8bbe 4262 913f 022f 2540 ba75 83c0
00000040: 9bb2 1cc0 0f2a 50c0 23b3 2bc0 9d3e b3bf
00000050: 4808 8bbf 9745 acbf b434 3a40 985c 1540
00000060: 692c 20c0 70d7 b23f c2b9 3fbf 6aa8 0341
00000070: 2d68 79bf b89a 0dbf d1c5 7640 6bc8 723f
00000080: 61f1 e2c0 11d3 d13e 8b56 54c0 171c 0740
00000090: 1a58 cbc0 d3f5 ae40 5261 c3bd 1694 7cbe
000000a0: 2d7c 503d 3e72 85bc 2364 2dc0 7a5b e73f
000000b0: d250 45bf b0e5 cc3d 0483 8fc0 8e8d a9c0
000000c0: 599b a1bf da61 e3be 44a8 25c0 259a bfc0
000000d0: 898d 9ebf fd37 a2c0 c82d 33be 6fe0 40c0
000000e0: a824 3140 93f9 24c1 82a2 5f3e c110 81bf
000000f0: 0d9c 1fc0 3046 d9c0 16f8 1a3f 7de5 bfc0
00000100: 0ead 1ec0 48b2 4f40 208a c9be f16e 2cbf
00000110: c97f d9be f7f4 cfbf cd8f 8640 8af8 d0bf
00000120: 3379 b73c 3895 03be 17c2 4540 c4f4 3a3f
00000130: c4d7 093f 971f 7240 b44d 5540 da0f a5bf
00000140: bb8c 59c0 a312 14c0 3e30 d23e fa31 24bf
00000150: 730d bc3f 7469 283f 5a1c 2ebe b431 c4c0
00000160: cad3 c040 9871 6440 7e6e 14c0 34a1 b940
00000170: f087 5c40 af98 d1c0 9209 a3bf e11c 3d40
00000180: 25ac 3040 c679 6a3f 8cf6 0540 aa95 bd40
00000190: e830 0940 f5e1 ba3f e17c d440 780b 8cbf
000001a0: 5532 dcc0 eae7 0dbf 64ee b73d 28bf 753f
000001b0: ca6a 25c1 55e0 693f a3c3 64c0 a0d1 4240
000001c0: 5fc2 81bf 49f6 f1be 9ed6 d9bd ba36 90be
000001d0: e2d9 8dc0 a0cc 8b40 81bb 8940 b821 2abf
000001e0: 43ee 9c40 58fd 9540 8add 1840 f3c1 8740
000001f0: 76de 5e40 6a68 9240 0964 73c0 9ebf 7ec0
00000200: e53a f5c0 45ac 173f cbd9 00c0 a5db c1bf
00000210: d5c7 0541 ae65 1540 e55a 3040 aec0 373e
00000220: fa5d b2c0 82dc 9bbf 260c 1ec0 ba20 aabf
00000230: 6dec 8c40 7a0c 0140 3144 c43f 347c e2bb
00000240: 1bdc 523f 3d1f aa3f 682e 50bf c614 86be
00000250: 14c7 10bf 3f41 afc0 8974 b040 2390 fabf
00000260: f915 93bf 076d 1741 0090 2c40 3a02 983f
00000270: d92b 88bf cb3f 9d3f 7b79 23c0 e630 103f
00000280: 7c50 67c0 4bc5 a0bf 165f 433f 2424 c440
00000290: 6381 3fc0 6f60 2840 a6a1 e33e 49a8 56c0
000002a0: 691d b5be 69e7 063d b0ea e1bf 8eb1 6340
000002b0: 34e6 e7bf 0962 68be 0560 7340 05db dd3f
000002c0: 44ad 0c40 9931 9740 2d92 6dbf 1baf 4840
000002d0: 85d4 60be 6d0d 5940 84bb 87c0 d640 4abe
000002e0: ee72 bebf a9f7 f73f a8cc b640 0ce3 49c0
000002f0: 60d2 bdc0 543e 14c0 989a 7e40 58c2 7ebf
00000300: 9280 ff3e 7e7a 67be 722f 8840 e69c c840
00000310: 27d9 33bf ff13 f73e aef9 44c0 1c03 a53d
00000320: 409e e2c0 edc2 70bd 3148 b7c0 e108 d7bf
00000330: bd32 0ac0 66e1 09c1 9398 ef40 830d d5c0
00000340: 486b 1b3f c950 593f 0996 33c0 f8b9 5140
00000350: b57d 58c0 e0de af3f 2bd9 03c1 634c 803f
00000360: 9377 883d 94d3 16c0 d995 a1bf f370 7ac0
00000370: defa bd40 5846 6fc0 bed6 b8bf 094c b43f
00000380: 5b23 a43f cfca 163f 2793 90c0 18dd ebc0
00000390: b010 efbf 72dc 0fc0 0e81 e33f 4660 64c0
000003a0: 0c28 50bf 74b9 2641 9ebf 4840 66df 33bf
000003b0: a63f d2be 1f9e 37c1 b3d3 2ac0 0557 0340
000003c0: f5c7 21c0 1ca0 e2be e773 efbf 2efe a63e
000003d0: 3fa1 0ec0 f7bd 973f bb82 92c0 1d9a 3440
000003e0: b362 e63f 3e92 a5c0 b62a 8cc0 ca40 d93f
000003f0: 38ae 9dc0 d75c 8540 04e4 50c0 a9ab 8140
