original_motion_optim_inversion_old/1000_inverse_optim.pth (torch, 29907 bytes, 1 tensors)

W f4 [1, 14, 512]
0	0xc09f25d1	-4.9733663
1	0x3f4b1d69	0.7934175
2	0x4044b4e4	3.0735407
3	0xbfb2a7aa	-1.3957417
4	0xbff4788e	-1.909929
5	0xbf160a81	-0.5860978
6	0x3f54c586	0.83113897
7	0x3f4a7e9f	0.7909946
8	0x3e01dc51	0.126817
9	0x3fac954e	1.3483064
10	0x404a2118	3.15827
11	0xbe00dade	-0.12583491
12	0xbf19b17d	-0.6003645
13	0x3f13d530	0.57747173
14	0x3f5231ba	0.82107127
15	0xbfa6e19a	-1.3037598
16	0xc01cb4d8	-2.4485378
17	0x3e8bb76e	0.27288383
18	0xbfb2c90c	-1.3967605
19	0xbfb0d9da	-1.3816483
20	0x3d1ef967	0.038812067
21	0xbf60f2f8	-0.8787074
22	0x3f27e7fc	0.65588355
23	0x3f960bd0	1.1722355
24	0xbf660d77	-0.89864296
25	0x3e8112b4	0.25209582
26	0xbfb200d4	-1.3906503
27	0x404cc696	3.1996207
28	0xbf81cada	-1.014003
29	0xbfcb41e5	-1.5879484
30	0x3ecb8eab	0.39757285
31	0xbf00234f	-0.50053877
32	0xc01e36c5	-2.4720929
33	0x3f1d383e	0.61413944
34	0xbda37dfd	-0.07983015
35	0xbf505bf4	-0.8139031
36	0xbfa11474	-1.2584367
37	0x406348ce	3.5513186
38	0x3ff1533f	1.885353
39	0x40090ba1	2.1413348
40	0xbfd4c8d4	-1.6623788
41	0x3f2f6360	0.6851101
42	0x408f543b	4.479032
43	0x3fd626f7	1.6730641
44	0xbfabaeb8	-1.3412695
45	0xbf4aa2e6	-0.79154813
46	0xc04f91db	-3.2432773
47	0xc02d3b9c	-2.7067633
48	0xbf09521b	-0.5364091
49	0xbdd3a953	-0.103350304
50	0xbe20e88f	-0.15713714
51	0xc09cdfc4	-4.902315
52	0x3f324492	0.6963588
53	0xbf3a5da8	-0.7279916
54	0xbfc81a78	-1.5633078
55	0xbf7efb27	-0.9960198
56	0x40358541	2.8362582
57	0xc0791f63	-3.8925407
58	0xbe46647b	-0.19374268
59	0xbea8ce60	-0.32969952
60	0xbf8f3bda	-1.119014
61	0xc078e409	-3.8889182
62	0xbfc4f9dc	-1.5388751
63	0xc0494585	-3.1448681
64	0xc03264c1	-2.7873995
65	0x3f4ab98d	0.7918938
66	0xbf1d7f83	-0.6152269
67	0xbfcc43dc	-1.5958209
68	0xbe402185	-0.18762787
69	0x3e906944	0.2820531
70	0x405b639d	3.427955
71	0xbdb7f523	-0.08982303
72	0xbee7c639	-0.4526842
73	0x3fa2851e	1.2696874
74	0x3ecd4490	0.40091372
75	0xbfe5c4d3	-1.7950691
76	0x3f3a90f1	0.72877413
77	0x406f8f92	3.7431378
78	0x3fe7cd19	1.8109466
79	0xbf542b8b	-0.8287894
80	0xbfcf6ff2	-1.6206038
81	0xbf488421	-0.7832661
82	0x3f1fdb88	0.62444353
83	0xc0011a50	-2.017231
84	0x3fb96242	1.4483111
85	0x3eb33101	0.34998325
86	0xc01320c3	-2.2988746
87	0xc0002f4b	-2.0028865
88	0xbf2c69dd	-0.67349035
89	0xbf8d05c8	-1.1017389
90	0x3f805840	1.0026932
91	0x409befa3	4.8730025
92	0x3f252a26	0.6451744
93	0xc08ffdef	-4.4997478
94	0xc0051f38	-2.0800304
95	0xbf2477af	-0.6424512
96	0xbf00882c	-0.5020778
97	0x3f7627f7	0.9615473
98	0x3f0949cc	0.5362823
99	0x405ff9ee	3.4996295
100	0x3fbdfcac	1.4842734
101	0x3fba6053	1.4560646
102	0x40179da3	2.3689964
103	0x3fefe779	1.8742515
104	0xc09ff4da	-4.998639
105	0x3edfcac2	0.4370938
106	0xbf0c38da	-0.5477425
107	0xc0586867	-3.3813722
108	0xbfd94207	-1.6973275
109	0x405fca53	3.496724
110	0xbf8e2738	-1.1105719
111	0x3cbbd5ab	0.022929033
112	0xbe8a87ed	-0.27056828
113	0xbf291386	-0.66045415
114	0x3e3d95a2	0.18514112
115	0x400378ca	2.0542474
116	0xbfd9cb72	-1.7015212
117	0x3fd1e3f2	1.6397688
118	0x3eaa838a	0.3330348
119	0x3efa457a	0.4888113
120	0x3ffe18b0	1.9851284
121	0x3ff18567	1.8868836
122	0x40427418	3.0383358
123	0x40a2ae6e	5.0837927
124	0x3e46611e	0.19372985
125	0x404a6044	3.1621256
126	0xbf5689a7	-0.8380379
127	0x3ea2881f	0.31744477
128	0xbf2e7ab4	-0.6815598
129	0x3f1fe4ff	0.62458795
130	0x3eb771d2	0.35829026
131	0x3f1f92ce	0.6233338
132	0x3fd40889	1.6565105
133	0x40575c33	3.3650024
134	0x4001128d	2.0167572
135	0x3c60b7ef	0.013715728
136	0xc01ab95b	-2.4175632
137	0xbd9a1486	-0.07523446
138	0x3f45baa1	0.772379
139	0x3ee985c8	0.4560988
140	0x4015914b	2.336993
141	0xbf2bd4ff	-0.6712188
142	0x3fe3dda2	1.7802012
143	0x3ee32b47	0.44368955
144	0xbf4f77c9	-0.8104215
145	0xbd248ade	-0.040171497
146	0x3d1db6d4	0.038504437
147	0xbebce513	-0.3689352
148	0xbfc06094	-1.5029473
149	0xc04f5aec	-3.2399244
150	0x40b72972	5.7238092
151	0xbfba4920	-1.4553566
152	0x3ef64e29	0.48106506
153	0x40492bc0	3.1432953
154	0x4024a16e	2.572353
155	0xc0519039	-3.2744277
156	0xbfc4b914	-1.5368981
157	0x3fb9c569	1.451337
158	0xbde4b7a1	-0.11167837
159	0x3ed0747f	0.4071388
160	0xc086fb14	-4.218149
161	0xbf8127f9	-1.0090324
162	0x3ee48223	0.44630536
163	0x3f2407da	0.6407448
164	0xbf07b209	-0.53006035
165	0x3f4740ef	0.77833456
166	0x407fa526	3.9944549
167	0xbff921ae	-1.9463403
168	0xbf1c6ba5	-0.6110175
169	0x3ebc7ff0	0.3681636
170	0x3ed1daf0	0.4098735
171	0x3ffdf23e	1.9839551
172	0xc01561db	-2.3340976
173	0xbff93775	-1.9470049
174	0x3f66f91c	0.9022386
175	0x40186d1e	2.38166
176	0xbedbc99c	-0.42927253
177	0x3fa3f8fc	1.2810359
178	0xbea4718f	-0.32117888
179	0x3fc297c0	1.520256
180	0xbf8dfbc7	-1.1092461
181	0xbebc4161	-0.3676863
182	0xc08d9a0e	-4.4250555
183	0xbdefa275	-0.11700908
184	0x3d37a80e	0.044838004
185	0x3d0f001f	0.034912225
186	0x4081ae8b	4.0525565
187	0xbfdd5252	-1.7290747
188	0xbfe1e068	-1.7646608
189	0xbf380e4a	-0.71896803
190	0x402ec38d	2.7306855
191	0xbc6b91b3	-0.014377999
192	0x3fec46b5	1.8459078
193	0xbe9b3a95	-0.30318132
194	0x4095eb07	4.68494
195	0xbec79220	-0.38978672
196	0xbdd433b7	-0.10361426
197	0x3f3556c9	0.7083555
198	0xbf94ef47	-1.1635522
199	0x3ec1a325	0.37819782
200	0xc020390d	-2.503482
201	0x3fab1a36	1.3367374
202	0xbfaaecb1	-1.3353482
203	0xc03b5a44	-2.9273844
204	0xbf9b2623	-1.2121013
205	0xc00c2682	-2.1898503
206	0x3ea73f1b	0.32665333
207	0xc04ffd9a	-3.2498536
208	0x3ef7700f	0.4832768
209	0x3f17e32a	0.59331
210	0xbf6f2a94	-0.93424344
211	0x3fd4bf20	1.6620827
212	0xbfba985c	-1.4577746
213	0x3efe77ab	0.49700674
214	0xc0bba81d	-5.8642716
215	0x40477fa1	3.1171649
216	0x3f8f90d5	1.1216074
217	0xc011e9f1	-2.2799037
218	0x3f155c9c	0.58344436
219	0xbfc9bafa	-1.5760186
220	0x409d4db4	4.9157352
221	0xbf3da959	-0.7408653
222	0x3de56e04	0.112026244
223	0x3fc2182a	1.5163624
224	0xbdd33dbf	-0.103145115
225	0x3f043be3	0.5165388
226	0xc04144c2	-3.0198216
227	0xc014f982	-2.3277287
228	0xbf6874ad	-0.90803033
229	0x3dd0a8be	0.10188435
230	0x3f92f90a	1.1482251
231	0xbf4d6935	-0.8023866
232	0xbf6d52ab	-0.92704266
233	0x40b3d465	5.619677
234	0x3f5a1399	0.85186154
235	0xc002e99e	-2.0455089
236	0x3ff3bd0f	1.9042071
237	0xc0bb94bb	-5.8619056
238	0xbe8223cc	-0.25417936
239	0x3cf20a5e	0.02954596
240	0xbfd81b67	-1.6883363
241	0x3e22cca0	0.1589837
242	0xbfc66527	-1.5499619
243	0xbe279d2e	-0.16368553
244	0xc001712d	-2.0225327
245	0x3fed1349	1.852151
246	0xbfdf317e	-1.7436979
247	0x3f9d8558	1.2306318
248	0xbe817b68	-0.25289464
249	0xc008106e	-2.1260028
250	0xbf590516	-0.84773386
251	0x3fd53dfe	1.6659544
252	0xbd8fe744	-0.07026532
253	0xbe80daae	-0.2516684
254	0xc0a8dc81	-5.276917
255	0x3d30e7e7	0.04318991
