original_motion_optim_inversion_old/1500_inverse_optim.pth (torch, 29907 bytes, 1 tensors)

W f4 [1, 14, 512]
-5.5935893 0.8848341 3.714327 -0.8238202 -2.1300614 -0.9960215 0.87269527 1.015347
-0.124304935 1.2701812 3.240799 -0.08045101 -0.7826641 0.5042826 0.83910185 -1.7621856
-2.3255582 0.68196714 -1.4758976 -1.4311577 -0.09153077 0.059369028 0.73208416 1.0536786
-0.4419658 0.7646704 -1.3361398 3.7295306 -1.0859098 -1.3802078 0.76199603 0.2015076
-2.848236 -0.25225595 0.32333866 -0.57452655 -1.700798 3.2702322 1.5043885 2.5670261
-1.199668 0.60967785 3.7479508 1.7354394 -1.3530986 -0.7644714 -2.3504286 -2.8528216
-0.612975 -0.5525377 -0.27453843 -4.9465117 0.6162138 -1.6651055 -1.414829 -1.2590852
2.9980674 -4.2103996 -0.36592558 -0.119140275 -0.4254255 -5.482114 -1.5961308 -2.2892056
-3.2213929 1.4070355 -1.0662774 -1.6576426 -0.6556992 0.14123884 3.8735456 -0.6140363
-0.9659287 1.3506877 0.53898156 -1.9855441 0.8024329 3.8706503 1.9966643 -1.0430255
-1.8833752 -0.99815595 0.1184105 -1.928194 1.6551622 0.3343931 -2.091579 -2.2280078
-0.2981181 -0.40706176 1.1920844 4.6335626 0.8559279 -4.8580046 -2.0344634 -0.36460572
-0.0028047962 1.3194517 0.33085608 4.292556 1.3321606 1.9333614 2.7540715 0.23010048
-4.980674 0.071845524 -0.088527896 -3.260285 -1.8447412 3.8644614 -1.2701473 -0.062161025
-0.16662763 -0.5256007 0.16235626 1.8572243 -2.4400618 1.6595074 -0.050129652 0.18984759
2.9081802 2.3713734 2.847816 5.079018 0.8429298 3.4461536 -1.5184909 -0.48606732
-1.1500924 0.61337197 -0.2743612 0.9535613 1.5076724 3.877664 2.0249786 -0.30489832
-3.3503091 -0.15661253 -0.16544873 0.42186105 2.4221623 -0.61141884 1.0748752 0.3626394
-0.6837582 -0.20361668 -0.056059197 -0.50678605 -1.552165 -4.2856035 5.8395963 -1.6850466
1.1969094 3.1479757 2.5276136 -3.4099555 -1.3558745 1.2560036 -0.35195994 0.15938638
-4.4670296 -0.83242166 0.45348433 1.1536291 -0.9375036 1.3082 3.441544 -2.7593806
-0.62396127 0.33941397 0.43378916 1.6454312 -2.1809943 -2.0784845 1.2698482 2.2075214
-0.4179642 1.0930777 -0.037947286 1.757854 -0.5321654 0.053898368 -4.0050707 0.005344811
0.78192514 -0.17485264 5.3060565 -1.5701975 -1.6024518 -0.3282326 2.9206786 0.0031639948
0.9073516 -0.33474693 5.045222 -0.72397834 -0.13638654 -0.0068635247 -1.5546536 0.40722913
-2.8081522 1.0915791 -1.0129402 -2.7254484 -1.4635609 -2.630356 1.5416567 -4.2109504
0.2592333 0.8167823 -0.9148288 1.347583 -1.5409075 0.5773797 -5.9094453 3.1192098
1.1622081 -2.3498747 0.6635735 -2.4801753 5.0221 -0.6516811 0.7196405 2.200898
0.2794159 0.035865985 -3.3616266 -1.583727 -0.67089474 -0.013232148 1.0655733 -2.6288521
-0.632244 6.5091543 1.1917037 -1.9725254 1.4822307 -7.2912703 -0.49010047 -0.2541675
-1.6414121 0.17774937 -1.1720067 0.15911362 -1.9113765 2.1783376 -2.1168056 1.4432617
0.15515067 -3.0102515 -1.5403609 1.567821 1.1340749 -0.32795224 -4.4897237 0.3656443
00000000: affe b2c0 7d84 623f 89b7 6d40 e1e5 52bf
00000010: ed52 08c0 44fb 7ebf f568 5f3f e4f6 813f
00000020: 9693 febd 4c95 a23f 4069 4f40 80c3 a4bd
00000030: ad5c 48bf aa18 013f 61cf 563f 4c8f e1bf
00000040: f2d5 14c0 6695 2e3f 36ea bcbf 2d30 b7bf
00000050: 7c74 bbbd f02c 733d de69 3b3f f1de 863f
00000060: 5749 e2be 70c1 433f a106 abbf a1b0 6e40
00000070: 18ff 8abf a6aa b0bf 2c12 433f 0258 4e3e
00000080: 8049 36c0 b127 81be a58c a53e 2c14 13bf
00000090: c0b3 d9bf 7c4b 5140 cd8f c03f 284a 2440
000000a0: b98e 99bf d913 1c3f 6dde 6f40 e122 de3f
000000b0: 5632 adbf 66b4 43bf 6c6d 16c0 a194 36c0
000000c0: eeeb 1cbf 1c73 0dbf 4d90 8cbe d349 9ec0
000000d0: 30c0 1d3f 2d22 d5bf 1e19 b5bf b429 a1bf
000000e0: 56e0 3f40 98bb 86c0 995a bbbe d1ff f3bd
000000f0: 5fd1 d9be 7a6d afc0 044e ccbf 5882 12c0
00000100: 4d2b 4ec0 bd19 b43f c77b 88bf a22d d4bf
00000110: e7db 27bf eaa0 103e 2ce8 7740 7c31 1dbf
00000120: 1a47 77bf 56e3 ac3f b2fa 093f 4f26 febf
00000130: 3e6c 4d3f bcb8 7740 b292 ff3f dc81 85bf
00000140: 7012 f1bf 2687 7fbf 3481 f23d 10cf f6bf
00000150: 5bdc d33f 9335 ab3e 6edc 05c0 ae97 0ec0
00000160: f0a2 98be 666a d0be 3996 983f 2546 9440
00000170: 171e 5b3f c674 9bc0 a634 02c0 9aad babe
00000180: acd0 37bb cbe3 a83f f865 a93e 9e5c 8940
00000190: 3d84 aa3f 6378 f73f b542 3040 769f 6b3e
000001a0: ae61 9fc0 bf23 933d 1d4e b5bd 82a8 50c0
000001b0: 7b20 ecbf 5653 7740 3094 a2bf 8f9c 7ebd
000001c0: 6fa0 2abe c48d 06bf b840 263e 87b9 ed3f
000001d0: f929 1cc0 bd6a d43f c054 4dbd 6867 423e
000001e0: a01f 3a40 95c4 1740 9e42 3640 5187 a240
000001f0: 3fca 573f c88d 5c40 e95d c2bf d1dd f8be
00000200: 3a36 93bf f205 1d3f 1279 8cbe 981c 743f
00000210: 69fb c03f a62b 7840 4099 0140 a21b 9cbe
00000220: 776b 56c0 095f 20be 646b 29be 2cfe d73e
00000230: b504 1b40 f285 1cbf 8395 893f dfab b93e
00000240: c70a 2fbf e480 50be 549e 65bd bbbc 01bf
00000250: 58ad c6bf aa23 89c0 f9dd ba40 9baf d7bf
00000260: 5434 993f 6f78 4940 6cc4 2140 b63c 5ac0
00000270: 4c8d adbf bac4 a03f 1834 b4be 2f36 233e
00000280: e8f1 8ec0 9619 55bf 192f e83e 1eaa 933f
00000290: 3c00 70bf 1973 a73f 4242 5c40 b199 30c0
000002a0: edbb 1fbf abc7 ad3e 9d19 de3e 7d9d d23f
000002b0: 6995 0bc0 e405 05c0 638a a23f 0848 0d40
000002c0: 67ff d5be f8e9 8b3f 9d6e 1bbd 5c01 e13f
000002d0: fe3b 08bf 89c4 5c3d 8a29 80c0 8623 af3b
000002e0: 3f2c 483f 920c 33be 37cb a940 3bfc c8bf
000002f0: 241d cdbf 1a0e a8be 66ec 3a40 065b 4f3b
00000300: 3248 683f f363 abbe 7572 a140 a556 39bf
00000310: eaa8 0bbe 6be7 e0bb e4fe c6bf 5680 d03e
00000320: c4b8 33c0 ddb8 8b3f 06a8 81bf bf6d 2ec0
00000330: f755 bbbf c157 28c0 0255 c53f 1bc0 86c0
00000340: 3aba 843e a518 513f 3832 6abf 9a7d ac3f
00000350: 753c c5bf 28cf 133f 2d1a bdc0 22a1 4740
00000360: 3cc3 943f 5964 16c0 f4df 293f 31bb 1ec0
00000370: 0bb5 a040 93d4 26bf 5c3a 383f 83db 0c40
00000380: 9a0f 8f3e 36e8 123d e424 57c0 91b7 cabf
00000390: c2bf 2bbf a7cb 58bc b564 883f 1d3f 28c0
000003a0: beda 21bf fe4a d040 bf89 983f b67b fcbf
000003b0: bcb9 bd3f 1652 e9c0 73ee fabe 3e22 82be
000003c0: cb19 d2bf ee03 363e 5104 96bf aeee 223e
000003d0: fca7 f4bf e269 0b40 be79 07c0 cdbc b83f
000003e0: d1df 1e3e f6a7 40c0 8c2a c5bf 5cae c83f
000003f0: 5e29 913f 5be9 a7be d1ab 8fc0 bb35 bb3e
