original_motion_optim_inversion_old/2000_inverse_optim.pth (torch, 29907 bytes, 1 tensors)

W f4 [1, 14, 512]
000000 49 ca b4 c0 4a e5 74 3f 22 53 87 40 84 11 4e bf
       -5.649693 0.9566237 4.228898 -0.80495477
000010 e6 52 18 c0 33 f0 d6 bf 93 9a 4c 3f 72 89 d4 3f
       -2.3800597 -1.6792053 0.7992336 1.6604445
000020 8e 3b ca be 08 e1 c8 3f f0 8f 4d 40 ae cf 9a 3d
       -0.39498562 1.5693674 3.2119102 0.07559143
000030 dd c4 7b bf ca 02 ed 3e 64 a6 93 3f f8 42 f4 bf
       -0.98347265 0.4629119 1.1535153 -1.9082937
000040 f3 15 35 c0 1c ce 07 3f 6b 7d d6 bf ff 45 a9 bf
       -2.8294647 0.5304887 -1.6757025 -1.3224486
000050 3a a0 c5 bd 8c ed 11 3d 1c 90 05 3f c5 b9 79 3f
       -0.096497014 0.035626933 0.5217302 0.97549087
000060 64 b3 44 bf 94 6c 6e 3f c7 c7 a3 bf c4 d0 74 40
       -0.7683623 0.9313443 -1.2795342 3.825242
000070 05 1b 8b bf 83 97 86 bf bf 05 83 3f 90 b0 0b 3f
       -1.0867621 -1.0514988 1.0236129 0.5456629
000080 49 e4 23 c0 ae 51 7b bd fa 72 ab 3e a9 2c 77 be
       -2.5608084 -0.061357193 0.33486158 -0.2413813
000090 75 de 0a c0 4a ac 45 40 47 bd df 3f 5a 47 47 40
       -2.1698277 3.0886407 1.7479638 3.11373
0000a0 04 d7 76 bf 71 18 1b 3f f3 8f 26 40 69 42 f7 3f
       -0.9642184 0.6058417 2.602536 1.9317142
0000b0 be c0 8e bf ab b8 6d bf 12 d5 0a c0 df e1 3f c0
       -1.115257 -0.92859906 -2.1692548 -2.998161
0000c0 7d 0d 2c bf b1 ab eb be 9a 73 e0 be ed 98 a9 c0
       -0.6720808 -0.46029428 -0.43838197 -5.2999177
0000d0 8a 02 f9 3e 5a fc 13 c0 fe 5a bd bf 7d 58 89 bf
       0.4863475 -2.3122773 -1.4793394 -1.073013
0000e0 f8 7d 46 40 db d1 8e c0 1a 08 17 bf 7a 65 f3 bd
       3.1014385 -4.463117 -0.58996737 -0.118845895
0000f0 9c e8 3a be cd 00 cc c0 af 35 ce bf 3b 0e 27 c0
       -0.18252796 -6.3750978 -1.6110133 -2.6102436
000100 d9 05 4d c0 62 89 af 3f d4 7a 8f bf a9 70 ef bf
       -3.203482 1.3713801 -1.1209359 -1.8706256
000110 a3 32 19 bf b6 52 83 3e 40 ec 57 40 de a5 69 bf
       -0.5984289 0.2564904 3.3737946 -0.9126872
000120 6f 17 91 bf 11 88 9e 3f e6 6a 33 3f 69 a9 06 c0
       -1.1335276 1.2385274 0.7008499 -2.10409
000130 32 f0 33 3f 28 d4 5a 40 94 f7 15 40 84 f8 ae bf
       0.70288384 3.419199 2.343236 -1.3669591
000140 78 3e d3 bf 57 3d 8c bf 64 1b d7 be 7c 99 8e bf
       -1.6503439 -1.095622 -0.42013085 -1.114059
000150 5b 6a 0b 40 bc f2 9f 3e ce bd 07 c0 1b 0f 08 c0
       2.1783664 0.3123988 -2.1209598 -2.125922
000160 cb 76 a0 be 4e 21 5e 3e 88 08 92 3f d0 38 9a 40
       -0.31340632 0.21692392 1.1408854 4.819435
000170 00 00 7c 3f 4e 1a 91 c0 f2 a3 f2 bf 95 4d c7 be
       0.984375 -4.534461 -1.8956282 -0.38926378
000180 c1 c8 cf 3e 3b e4 03 3f 1e 81 cc 3e 08 b8 97 40
       0.4058285 0.5152013 0.3994226 4.7412148
000190 3c 9c ad 3f 8a 42 ec 3f 13 61 39 40 65 94 91 3e
       1.3563304 1.8457806 2.89655 0.2843353
0001a0 6e 74 a2 c0 ca c3 04 bf 21 95 02 3e 73 5b 44 c0
       -5.0767126 -0.5186125 0.127522 -3.0680816
0001b0 a2 3a 85 bf 32 e5 87 40 b5 ef a6 bf 02 85 a1 3d
       -1.0408518 4.246728 -1.3041903 0.07886697
0001c0 82 cb b5 bc 47 8d ab be b8 b7 a9 3e 40 4f d7 3f
       -0.022191767 -0.33506224 0.3314798 1.682106
0001d0 75 c9 1f c0 f3 93 d3 3f b4 af b6 3e 66 a3 63 3e
       -2.496671 1.6529526 0.35680926 0.222303
0001e0 f1 26 4d 40 bc 89 30 40 66 74 54 40 68 cf ac 40
       3.2055018 2.7584066 3.3196044 5.400318
0001f0 aa 97 3f 3f 7b d8 67 40 6f 1b 1e c0 9a 10 c8 bf
       0.74840796 3.622588 -2.4704244 -1.5630066
000200 de d0 cd bf d9 fa 04 3f c0 ae 19 bf c1 cc 49 3f
       -1.6079366 0.51945263 -0.6003227 0.78828055
000210 7c b9 cd 3f 23 8e 85 40 50 66 04 40 c1 4c 36 bf
       1.607223 4.1736007 2.0687447 -0.7121087
000220 ce df 5c c0 7a ec 67 be 4d 19 41 bf 88 a4 3f 3f
       -3.45116 -0.22648802 -0.7542923 0.7486043
000230 8d 23 1f 40 e5 0c 1e bf 1b e5 86 3f d5 c8 4d 3f
       2.4865448 -0.61738425 1.0538667 0.8038457
000240 9b c9 16 bf f6 9e 74 be b8 1b 1e be 9e 19 93 be
       -0.58901376 -0.23888764 -0.15440261 -0.28730482
000250 e2 da ca bf 54 5a 9e c0 5c df bc 40 0f a0 d4 bf
       -1.5848048 -4.9485264 5.9022655 -1.6611346
000260 fb 02 8f 3f 34 b5 62 40 93 a1 26 40 f0 9e 41 c0
       1.1172785 3.5423098 2.6036117 -3.0253258
000270 98 b8 a7 bf af 9d 88 3f 9f 19 4e bf d0 02 d3 be
       -1.3103209 1.0673121 -0.80507845 -0.41213083
000280 e7 92 95 c0 86 f1 7a bf 8f 91 91 3e 85 89 e9 3f
       -4.6741824 -0.98024786 0.28431365 1.8245093
000290 60 3c a3 bf a0 92 b4 3f c9 2e 49 40 65 eb 4a c0
       -1.27528 1.4107246 3.1434805 -3.1706173
0002a0 ac 02 0e bf 31 bb 84 3e 4a 01 0a 3f f3 d6 d4 3f
       -0.55472827 0.25924066 0.53908217 1.6628097
0002b0 81 89 fb bf 69 2c 04 c0 f8 d8 a1 3f 60 e7 fa 3f
       -1.9651338 -2.0652106 1.2644339 1.960186
0002c0 53 28 c2 be 00 33 62 3f 63 e4 45 3e 05 c8 fc 3f
       -0.3792139 0.8835907 0.19325404 1.9748541
0002d0 a6 00 34 bf 60 a9 6d 3e b0 12 76 c0 79 12 83 be
       -0.7031349 0.23209143 -3.8448906 -0.2560003
0002e0 14 d7 8b 3f 85 91 9c be 29 73 b6 40 78 0d ce bf
       1.0925012 -0.30579773 5.7015576 -1.609786
0002f0 7b 7b e3 bf 32 ce b2 be 6f a0 48 40 26 4c 32 3d
       -1.7772058 -0.3492294 3.134792 0.043529652
000300 02 c0 6f 3f 9f 20 7c be 7b c5 b9 40 d6 20 1f bf
       0.93652356 -0.24621819 5.8053565 -0.6215948
000310 e2 8a 17 3e 36 3e 14 be 1e cf f9 bf be 4d f9 3e
       0.14799073 -0.14476857 -1.9516332 0.48692125
000320 f0 ff 4b c0 3f 73 86 3f d0 67 89 bf 19 ab 2e c0
       -3.1874962 1.050392 -1.0734806 -2.729193
000330 7c 4f e7 bf 5f 8c 54 c0 62 76 2a 40 3e 8f 95 c0
       -1.8071132 -3.3210676 2.6634755 -4.6737356
000340 ec 3b 1d 3e ff 25 45 3f 9b f6 77 bf f8 64 ba 3f
       0.1535489 0.770111 -0.96860665 1.4562063
000350 22 5c e2 bf aa d6 16 3f df bd c0 c0 75 b8 4e 40
       -1.7684367 0.589213 -6.0231776 3.2300084
000360 17 b5 4d 3f 03 f7 33 c0 a8 93 01 3f 19 95 50 c0
       0.80354446 -2.8119514 0.5061593 -3.2591002
000370 81 2c a4 40 8e 6f 33 bf 33 ff 6a 3f 59 6c 25 40
       5.1304326 -0.70092094 0.91795653 2.584738
000380 6f 9a eb 3e 7e 6d e3 be 92 b9 71 c0 aa 15 01 c0
       0.4601626 -0.44419473 -3.7769513 -2.0169473
000390 8f 77 07 bf 9e b9 f4 bd d2 e0 aa 3f f3 69 3a c0
       -0.52916807 -0.11949466 1.334986 -2.9127166
0003a0 5b b2 49 bf fc c1 da 40 c3 5a b5 3f 66 61 f6 bf
       -0.78787774 6.8361797 1.4168323 -1.9248474
0003b0 7e 8a 8b 3f 66 dd e1 c0 c5 e3 54 bf 36 2b ed be
       1.090164 -7.058276 -0.8316005 -0.4632203
0003c0 32 cf d8 bf 14 d0 3d be dd ae 5d bf cc 85 6a 3f
       -1.6938231 -0.18536407 -0.86594945 0.9161041
0003d0 e2 6d e1 bf ae c0 f2 3f 49 07 22 c0 c6 a4 d8 3f
       -1.7611659 1.8965051 -2.5316947 1.6925285
0003e0 4c f2 bd 3e ec 34 67 c0 8a e5 fd bf 01 24 c7 3f
       0.3709892 -3.612605 -1.9835675 1.5557863
0003f0 f3 eb 66 3f b8 a2 d9 3e 28 22 74 c0 09 1b b1 3e
       0.9020378 0.42506957 -3.8145847 0.3459094
