original_motion_optim_inversion_old/2500_inverse_optim.pth (torch, 29907 bytes, 1 tensors)

W f4 [1, 14, 512]
-5.846693 0.88789225 5.127431 -0.891446 -2.4810138 -2.0356133 1.4203434 2.251811
-0.46043512 1.7141122 3.374606 0.08053903 -0.60271925 0.92737496 2.131919 -2.0492635
-2.742443 0.56920785 -1.8457052 -0.94528073 -0.10606054 -0.28360566 0.49734712 1.0815948
-1.1559298 1.1602561 -1.1266794 4.028284 -1.2896622 -1.3053086 1.6381218 -0.0030062664
-3.2996423 -0.1250041 -0.1731119 0.22408561 -2.8254974 4.1275415 1.8211975 3.4193769
-0.6702239 0.6164372 1.3038726 1.1953312 -1.2362531 -0.98813224 -2.4645932 -2.9901197
-0.49271393 -0.23391697 -0.8535191 -6.2913504 1.0929106 -2.4484572 -1.4813063 -1.3117884
3.1888118 -4.508887 -0.8700445 0.16146627 -0.306457 -6.474819 -1.4516317 -2.6108053
-3.1365945 1.4710343 -1.0155731 -1.851014 -0.20088544 0.39736494 3.432667 -1.0716934
-1.2456149 1.2768965 0.8956221 -1.7737383 0.7345654 3.1416783 2.638654 -1.818331
-1.7708951 -1.8375757 -0.60869575 -1.2438749 2.524717 0.17625946 -1.5654941 -2.1474583
-0.011349395 0.5270861 0.31573474 4.9720488 1.2288874 -4.518651 -1.6998339 -0.2844452
0.7081122 0.53696454 0.22111616 5.090119 1.1930857 1.5455154 3.321409 -0.23206563
-5.1182914 -1.1194134 0.20635568 -3.0323572 -1.435094 3.9234037 -1.6243223 0.16089003
-0.39325994 -0.35827935 0.23128286 1.9388814 -2.8210068 1.7947954 0.7782863 0.4129846
3.2225437 2.8159635 3.3801844 5.7052355 1.2394911 3.7319627 -3.1402802 -2.2707644
-2.534522 0.36871722 -1.1909518 0.8058487 1.0235758 3.7540143 1.7152396 -0.17201357
-3.946896 -0.42897788 -1.0363401 0.45435187 2.991773 -0.8100937 0.7125717 0.8388138
-0.5249616 -0.19766997 -0.5001912 0.11117411 -1.5698566 -5.7238836 5.813605 -1.9126291
0.63458586 3.9002147 2.4001517 -2.4206529 -1.4084076 0.7787792 -0.63552177 -0.7143552
-4.608516 -1.0935172 0.048703402 1.885364 -1.6433967 1.2686211 3.015343 -3.4036777
-0.6528764 0.44626153 0.3433496 1.3301051 -1.9173856 -1.7497858 1.0505593 2.5968013
-0.3397104 1.2365744 0.13411573 2.0284092 -0.4405752 0.55867743 -3.978043 -0.34579453
1.0855738 -0.9662177 5.9671392 -1.7242231 -1.8872344 -0.3064614 3.3267503 0.0026137407
1.5866609 -0.08590368 5.8660893 -0.3737104 -0.27910587 -0.29136616 -2.3772638 0.76301897
-4.034514 0.8928401 -1.1563935 -2.7403688 -2.0136735 -4.481488 2.8939555 -5.057236
0.30988494 0.66209036 -1.3142366 2.2274535 -2.3069372 0.97074944 -6.3301654 3.4106686
0.5682906 -3.3091967 -0.2734369 -3.975612 5.0927467 -1.2834561 0.92295355 2.8007426
1.169642 -0.5716231 -4.413254 -3.0666003 -0.44061092 0.042271324 1.140618 -2.369636
-0.8972406 7.168902 1.7770858 -1.8861116 1.1507189 -7.568179 -1.3241916 -0.31443137
-1.6112279 -0.50091094 -0.6006517 0.5805488 -1.9490331 2.2963603 -2.776994 1.6987667
0.33643258 -4.5383205 -2.1969886 1.328314 -0.40200964 1.048916 -4.983834 0.0014020242
00000000: 1c18 bbc0 e84c 633f ea13 a440 ce35 64bf
00000010: eec8 1ec0 7d47 02c0 d0cd b53f ac1d 1040
00000020: 27be ebbe 0768 db3f 8bf9 5740 a6f1 a43d
00000030: cf4b 1abf 7268 6d3f 5c71 0840 2227 03c0
00000040: 3084 2fc0 9bb7 113f 1140 ecbf ebfd 71bf
00000050: 4536 d9bd c334 91be 48a4 fe3e b371 8a3f
00000060: 82f5 93bf 4683 943f 0837 90bf b4e7 8040
00000070: a713 a5bf 5a14 a7bf faad d13f c804 45bb
00000080: 572d 53c0 1301 00be 3f44 31be b376 653e
00000090: f3d4 34c0 d214 8440 001d e93f 12d7 5a40
000000a0: cb93 2bbf d4ce 1d3f 4ce5 a63f 9d00 993f
000000b0: 8b3d 9ebf 3cf6 7cbf e5bb 1dc0 1f5e 3fc0
000000c0: 0045 fcbe ee87 6fbe 3a80 5abf be52 c9c0
000000d0: 7fe4 8b3f 86b3 1cc0 729b bdbf afe8 a7bf
000000e0: 7e15 4c40 cd48 90c0 3dbb 5ebf 6a57 253e
000000f0: efe7 9cbe b831 cfc0 11cf b9bf 6f17 27c0
00000100: f7bd 48c0 da4a bc3f 4dfe 81bf 07ee ecbf
00000110: eab4 4dbe 6b73 cb3e d1b0 5b40 402d 89bf
00000120: 4f70 9fbf 5871 a33f 7d47 653f db09 e3bf
00000130: 7a0c 3c3f 4211 4940 b5df 2840 12bf e8bf
00000140: b1ac e2bf ae35 ebbf 7cd3 1bbf 4b37 9fbf
00000150: f794 2140 5c7d 343e 1c62 c8bf f56f 09c0
00000160: d0f2 39bc 1def 063f fca7 a13e 061b 9f40
00000170: 2f4c 9d3f ca98 90c0 2894 d9bf cda2 91be
00000180: d746 353f 8276 093f 466c 623e 41e2 a240
00000190: 08b7 983f 73d3 c53f f791 5440 9da2 6dbe
000001a0: 0bc9 a3c0 f048 8fbf e74e 533e 2412 42c0
000001b0: 29b1 b7bf 0c19 7b40 cbe9 cfbf 5bc0 243e
000001c0: 5e59 c9be 6470 b7be 6ad5 6c3e 442d f83f
000001d0: 608b 34c0 dbbb e53f c53d 473f b872 d33e
000001e0: 283e 4e40 bf38 3440 f154 5840 4a91 b640
000001f0: a5a7 9e3f 7ad8 6e40 5afa 48c0 3454 11c0
00000200: 9c35 22c0 81c8 bc3e 1c71 98bf 1a4c 4e3f
00000210: 8804 833f c541 7040 f98c db3f 5324 30be
00000220: f299 7cc0 fda2 dbbe cba6 84bf cfa0 e83e
00000230: 3579 3f40 4d62 4fbf 196b 363f 80bc 563f
00000240: e263 06bf ff69 4abe 880c 00bf 40af e33d
00000250: 10f1 c8bf 0e2a b7c0 0d09 ba40 08d1 f4bf
00000260: 3874 223f 1e9d 7940 169c 1940 faeb 1ac0
00000270: b346 b4bf 135e 473f 8eb1 22bf fbdf 36bf
00000280: f778 93c0 5ff8 8bbf 387d 473d 9c53 f13f
00000290: d35a d2bf 2d62 a23f 61fb 4040 dbd5 59c0
000002a0: e822 27bf 647c e43e 85cb af3e e240 aa3f
000002b0: e46c f5bf fbf8 dfbf ba78 863f fe31 2640
000002c0: 86ee adbe 1248 9e3f a255 093e 75d1 0140
000002d0: 1393 e1be 7c05 0f3f 4298 7ec0 fb0b b1be
000002e0: 15f4 8a3f 0b5a 77bf cef2 be40 58b3 dcbf
000002f0: e690 f1bf 82e8 9cbe 7ae9 5440 4b4b 2b3b
00000300: b417 cb3f 45ee afbd 01b7 bb40 f856 bfbe
00000310: f7e6 8ebe f22d 95be 1725 18c0 3655 433f
00000320: bd1a 81c0 2b91 643f b404 94bf 3462 2fc0
00000330: 07e0 00c0 5a68 8fc0 9136 3940 e1d4 a1c0
00000340: 3da9 9e3e c17e 293f e838 a8bf 998e 0e40
00000350: dca4 13c0 0983 783f b790 cac0 6548 5a40
00000360: 7e7b 113f e1c9 53c0 ecff 8bbe 6d70 7ec0
00000370: c8f7 a240 4a48 a4bf af46 6c3f 5e3f 3340
00000380: d4b6 953f e455 12bf 6039 8dc0 2e43 44c0
00000390: c197 e1be b224 2d3d c5ff 913f 1ea8 17c0
000003a0: 8fb1 65bf a567 e540 8c77 e33f 1b6c f1bf
000003b0: c24a 933f 862e f2c0 1c7f a9bf 26fd a0be
000003c0: b73c cebf b33b 00bf 4fc4 19bf d99e 143f
000003d0: eb79 f9bf 91f7 1240 45ba 31c0 3071 d93f
000003e0: e440 ac3e ec39 91c0 769b 0cc0 3106 aa3f
000003f0: 35d4 cdbe e142 863f 917b 9fc0 20c4 b73a
