original_motion_optim_inversion_old/3000_inverse_optim.pth (torch, 29907 bytes, 1 tensors)

W f4 [1, 14, 512]
-5.6337695 0.74350876 6.318475 -0.57284105 -2.4509604 -2.461006 1.7510369 2.1222413
-0.56874627 1.7406361 2.970379 0.1344437 -0.488487 1.1323837 2.8818073 -2.0262604
-2.6492689 0.26576024 -1.8955144 -0.9716293 -0.54834086 -0.24843545 0.6652812 1.4308548
-1.5218797 1.1947068 -1.0846409 4.478535 -1.2375658 -1.4875289 2.2130456 0.1270387
-3.0069904 0.3724247 -0.523838 0.45007852 -3.0566154 4.7785425 1.6551219 3.3269925
-0.6035424 0.63995355 1.1788838 1.0315487 -1.2767568 -0.97466105 -2.3052747 -3.215242
-0.41960824 -0.20141774 -1.2424295 -6.218429 0.5997997 -2.8391936 -1.3998604 -1.4173752
3.3565197 -4.379037 -0.8654957 0.6251632 -0.509962 -6.1781754 -1.5246056 -2.6763365
-3.398359 1.5826613 -1.0560057 -1.7592213 -0.3346474 0.3664972 3.0644467 -1.2150984
-0.87761277 1.1212853 0.79327285 -1.3190513 0.85167944 3.2152705 2.8899987 -1.6720731
-1.8959728 -1.7916551 -0.8024946 -1.320769 2.61139 0.11768695 -1.5935498 -2.2769203
0.62279165 0.7459038 -0.20730524 4.6263604 1.3499559 -4.5733533 -1.3985999 -0.015188016
0.8333664 0.45261106 0.45951104 5.323265 1.2007687 1.5176046 3.8244169 -0.7312186
-5.1358786 -1.2427295 0.3289418 -3.2511444 -2.199561 3.9737234 -1.5822082 0.36836055
-0.26307368 -0.22855228 0.36025017 1.39209 -2.8718789 1.8999937 0.8762675 0.27526727
3.5024347 2.5727997 3.7180622 5.5007687 1.3369678 4.040508 -3.2652957 -2.688365
-3.230654 0.5493814 -1.4914908 0.62408197 1.179027 3.887534 1.8447653 0.14083801
-4.299718 -0.97877455 -0.83103 0.0822544 3.1245413 -0.6045187 0.65897554 0.50495666
-0.18058044 -0.12436726 -0.5714066 -0.19431446 -1.6281576 -5.6727123 5.594306 -2.1038957
0.5926064 4.493241 2.2218065 -2.1355627 -1.3625457 0.5603561 -0.7100486 -0.7376547
-4.577441 -1.4602754 0.18882057 2.8331552 -1.9925165 1.2857736 2.3766532 -3.5996861
-0.89620376 0.3761606 0.04864282 1.1503522 -1.8225607 -1.6200382 1.5492959 2.4091523
-0.2308678 1.3118469 -0.09028015 1.787588 -0.27386338 0.94951826 -4.020418 -0.13215053
0.6146649 -0.9732677 5.895924 -1.5422983 -2.3466423 -0.19612303 3.3805099 -0.038561255
1.5680581 0.005210135 5.7620907 0.73417366 -0.5229711 -0.2731859 -2.334738 0.44261876
-4.5647597 0.9650864 -1.258899 -2.696163 -2.1019876 -4.9617457 3.1667166 -5.790938
0.2669245 0.7126876 -1.520094 2.6218243 -2.3847547 1.1594512 -6.187315 2.7075732
0.16016369 -3.0203896 -0.36494717 -4.205252 5.001693 -1.3331786 0.7890317 2.5455253
0.9996261 -0.1838267 -4.2604685 -3.115164 -0.46185353 -0.2384752 1.0932125 -2.6761794
-0.5990634 8.015031 2.0393238 -1.7404546 0.8968218 -7.813388 -1.4683893 0.03951084
-1.4964148 -0.44325635 -0.891837 0.3155471 -2.01909 2.7986088 -2.7503886 1.9240501
0.38748252 -4.228666 -2.1196508 1.2088981 -1.0962857 1.5099962 -4.7578764 0.26907715
00000000: d747 b4c0 9756 3e3f f230 ca40 b6a5 12bf
00000010: 89dc 1cc0 1f81 1dc0 fa21 e03f cdd2 0740
00000020: 5b99 11bf 2acd de3f b11a 3e40 9cab 093e
00000030: f81a fabe f3f1 903f 886f 3840 40ae 01c0
00000040: 9f8d 29c0 ba11 883e 37a0 f2bf b3bc 78bf
00000050: 1160 0cbf dd65 7ebe de4f 2a3f 4026 b73f
00000060: f4cc c2bf 27ec 983f 83d5 8abf 2950 8f40
00000070: 8e68 9ebf 5967 bebf 8aa2 0d40 6f16 023e
00000080: 8872 40c0 73ae be3e 3f1a 06bf b170 e63e
00000090: 969f 43c0 d2e9 9840 09db d33f 72ed 5440
000000a0: c181 1abf ffd3 233f aae5 963f ca09 843f
000000b0: c46c a3bf 6383 79bf 9f89 13c0 86c6 4dc0
000000c0: e4d6 d6be 7440 4ebe ee07 9fbf 5ffd c6c0
000000d0: 798c 193f 59b5 35c0 a02e b3bf 8d6c b5bf
000000e0: 38d1 5640 1221 8cc0 2091 5dbf b20a 203f
000000f0: df8c 02bf 9db3 c5c0 4726 c3bf 1949 2bc0
00000100: b77e 59c0 a594 ca3f 322b 87bf 2a2e e1bf
00000110: e756 abbe 85a5 bb3e e51f 4440 5888 9bbf
00000120: 3bab 60bf 4786 8f3f ee13 4b3f acd6 a8bf
00000130: aa07 5a3f fec6 4d40 bdf5 3840 7e06 d6bf
00000140: 3daf f2bf f454 e5bf 4970 4dbf f50e a9bf
00000150: 0421 2740 db05 f13d 71f9 cbbf 10b9 11c0
00000160: 466f 1f3f 8df3 3e3f d347 54be 250b 9440
00000170: 5bcb ac3f e958 92c0 5205 b3bf 28d7 78bc
00000180: 8057 553f a3bc e73e 0845 eb3e 3058 aa40
00000190: cab2 993f de40 c23f 3fc3 7440 2431 3bbf
000001a0: 1e59 a4c0 c311 9fbf 0f6b a83e c012 50c0
000001b0: 9cc5 0cc0 7c51 7e40 cc85 cabf c199 bc3e
000001c0: 98b1 86be 9c09 6abe b672 b83e 0130 b23f
000001d0: ddcc 37c0 fe32 f33f 1153 603f d5ef 8c3e
000001e0: e427 6040 c0a8 2440 bbf4 6d40 4c06 b040
000001f0: c321 ab3f d74b 8140 9bfa 50c0 2c0e 2cc0
00000200: 09c3 4ec0 42a4 0c3f 2ce9 bebf d6c3 1f3f
00000210: 5bea 963f 5bcd 7840 4521 ec3f d737 103e
00000220: 4a97 89c0 f890 7abf 62be 54bf ff74 a83d
00000230: 7cf8 4740 bdc1 1abf 9fb2 283f d744 013f
00000240: 14ea 38be 43b4 febd b447 12bf 5ffa 46be
00000250: 7867 d0bf dc86 b5c0 8e04 b340 3aa6 06c0
00000260: 0eb5 173f a1c8 8f40 1432 0e40 0fad 08c0
00000270: e667 aebf 7f73 0f3f bfc5 35bf f0d6 3cbf
00000280: 667a 92c0 4eea babf 2e5a 413e 6a52 3540
00000290: c80a ffbf 3b94 a43f 161b 1840 4261 66c0
000002a0: 9c6d 65bf 1f98 c03e b23d 473d be3e 933f
000002b0: ab49 e9bf 695d cfbf 544f c63f 8d2f 1a40
000002c0: 9c68 6cbe 99ea a73f cde4 b8bd afcf e43f
000002d0: d237 8cbe a113 733f 44a7 80c0 7852 07be
000002e0: ae5a 1d3f 1228 79bf 69ab bc40 086a c5bf
000002f0: 632f 16c0 7ad4 48be 465a 5840 68f2 1dbd
00000300: 21b6 c83f c8b9 aa3b 0c63 b840 cef2 3b3f
00000310: 6fe1 05bf 06df 8bbe 596c 15c0 ed9e e23e
00000320: 8312 92c0 e70f 773f 9a23 a1bf ef8d 2cc0
00000330: f786 06c0 9fc6 9ec0 7cab 4a40 5d4f b9c0
00000340: 54aa 883e b272 363f 7192 c2bf f8cb 2740
00000350: d29f 18c0 e668 943f 7cfe c5c0 e148 2d40
00000360: f301 243e 104e 41c0 5bda babe 6d91 86c0
00000370: de0d a040 99a5 aabf fbfd 493f e3e9 2240
00000380: 7fe7 7f3f 113d 3cbe c255 88c0 d95e 47c0
00000390: 1178 ecbe d832 74be 63ee 8b3f 8646 2bc0
000003a0: 385c 19bf 913d 0041 4884 0240 37c7 debf
000003b0: 1d96 653f 4607 fac0 2ef4 bbbf 1ed6 213d
000003c0: 858a bfbf 7ff2 e2be 6e4f 64bf 648f a13e
000003d0: c538 01c0 681c 3340 5e06 30c0 4647 f63f
000003e0: 1c64 c63e 3b51 87c0 5ca8 07c0 2cbd 9a3f
000003f0: 1753 8cbf 8e47 c13f 8640 98c0 7bc4 893e
