original_motion_optim_inversion_old/3500_inverse_optim.pth (torch, 29907 bytes, 1 tensors)

W f4 [1, 14, 512]
0	0xc0b77506	-5.733035
1	0x3f2b68c2	0.6695672
2	0x40d81b5c	6.75334
3	0xbed6eced	-0.41977635
4	0xc0322fc4	-2.7841654
5	0xc0372d63	-2.8621452
6	0x3ff1ec79	1.8900291
7	0x4003050e	2.0471835
8	0xbf5862b8	-0.8452563
9	0x3fdf4be6	1.7445037
10	0x403e062c	2.9691267
11	0x3db1f658	0.086895645
12	0xbed49413	-0.41519222
13	0x3fa15b1e	1.2605932
14	0x405556a1	3.3334124
15	0xc003f61e	-2.0618968
16	0xc0279a4f	-2.6187932
17	0x3e6bc775	0.23025306
18	0xc014a194	-2.322362
19	0xbf966744	-1.1750264
20	0xbf9dd964	-1.2331967
21	0xbe0a8aa1	-0.13529445
22	0x3f43c5c6	0.76473653
23	0x3fdcf1a9	1.7261249
24	0xbfcbba4d	-1.591623
25	0x3fac9710	1.3483601
26	0xbf8e345f	-1.1109732
27	0x409db913	4.928842
28	0xbf8991dd	-1.0747639
29	0xbfbb4d59	-1.463298
30	0x4025782a	2.5854592
31	0x3ec7ab0c	0.38997686
32	0xc043d111	-3.0596354
33	0x3e912c75	0.2835423
34	0xbf402c2c	-0.750674
35	0x3f3355fb	0.7005307
36	0xc05b96ce	-3.4310794
37	0x40970f06	4.720584
38	0x3fcb5538	1.5885382
39	0x4033f336	2.8117194
40	0xbedd8a42	-0.43269545
41	0x3f502b3e	0.8131598
42	0x3f41ec4d	0.7575119
43	0x3f345ecd	0.70457155
44	0xbfb042b7	-1.377036
45	0xbf81cf7b	-1.0141443
46	0xc00f9c8e	-2.2439303
47	0xc05f2af0	-3.4869957
48	0xbe93f766	-0.28899688
49	0xbeaa8c21	-0.33310035
50	0xbfba2853	-1.4543556
51	0xc0ce18c4	-6.440523
52	0x3e3bdea4	0.1834665
53	0xc046de88	-3.1073322
54	0xbfb09098	-1.3794127
55	0xbfd714d1	-1.6803228
56	0x40710af6	3.766294
57	0xc084d5d0	-4.1511
58	0xbf24987a	-0.6429516
59	0x3f734f55	0.95042926
60	0xbf2f8b37	-0.685718
61	0xc0d0dbfa	-6.5268526
62	0xbf771ab0	-0.96525097
63	0xc02b5a53	-2.677388
64	0xc04d7729	-3.210398
65	0x3ff3d8e2	1.9050562
66	0xbf6b8dfe	-0.9201354
67	0xbfe22ae0	-1.7669334
68	0xbeb73b08	-0.35787225
69	0x3d8784b3	0.06617107
70	0x404de678	3.2171917
71	0xbfc7d923	-1.561314
72	0xbf33a22d	-0.70169336
73	0x3f87f7a7	1.0622452
74	0x3f528cee	0.8224629
75	0xbf4c8af2	-0.79899514
76	0x3f73ceb6	0.9523729
77	0x40573299	3.3624632
78	0x4045f550	3.0930977
79	0xbfd5eb77	-1.6712483
80	0xc00b886c	-2.1802015
81	0xbfeea903	-1.8645328
82	0xbf425a5b	-0.7591912
83	0xbfb625d6	-1.4230297
84	0x40135dfa	2.3026109
85	0x3cb5fd79	0.022215592
86	0xbfd6f680	-1.6793976
87	0xc018ef6f	-2.3896139
88	0x3fc71155	1.5552164
89	0x3f844e12	1.0336325
90	0xbeebdb8a	-0.46065933
91	0x40801026	4.0019712
92	0x3fc78162	1.558636
93	0xc0968116	-4.7032576
94	0xbf8d46d4	-1.103724
95	0x3e9bb8f0	0.30414534
96	0x3f8a4b28	1.0804186
97	0x3f4e000b	0.80468816
98	0x3f43fa6d	0.76553994
99	0x40b02ae6	5.5052366
100	0x3f9be696	1.2179744
101	0x3fed5f09	1.8544627
102	0x408bc065	4.3672357
103	0xbf97851b	-1.1837496
104	0xc0a9b181	-5.302918
105	0xbfc3a92e	-1.5286005
106	0x3ed0a82a	0.407533
107	0xc04223ff	-3.033447
108	0xc04a5324	-3.1613245
109	0x40625b26	3.5368133
110	0xbfcaed96	-1.5853755
111	0x3f510665	0.8165038
112	0x3d292732	0.041297145
113	0xbe30c255	-0.17261632
114	0x3ea8f08d	0.32996026
115	0x3f890f09	1.0707713
116	0xc0465e6d	-3.0995133
117	0x4004599d	2.0679696
118	0x3f68553e	0.9075507
119	0x3e190e25	0.14946802
120	0x4080ab94	4.0209446
121	0x401d118e	2.4541965
122	0x407063c1	3.7560885
123	0x40aa7977	5.3273273
124	0x3ff07e49	1.8788539
125	0x4084edd0	4.15403
126	0xc054ad90	-3.3230934
127	0xc041f1b2	-3.030377
128	0xc06e135b	-3.7199314
129	0x3f418753	0.75597113
130	0xbfccfa85	-1.6013952
131	0x3f18349f	0.59455293
132	0x3fe2d115	1.7720057
133	0x40708965	3.758386
134	0x3fda3e84	1.7050328
135	0x3d2160cc	0.039398953
136	0xc08e2b31	-4.4427724
137	0xbfa91f25	-1.321263
138	0xbf4f7f69	-0.8105379
139	0xbe484b84	-0.19560057
140	0x404ed496	3.2317252
141	0xbe95ac56	-0.29233044
142	0x3f56342c	0.8367336
143	0x3f2586a4	0.6465857
144	0x3b38b3c7	0.0028183328
145	0xbe50cfce	-0.20391771
146	0xbf09fdc9	-0.5390287
147	0xbd252909	-0.040322337
148	0xbfbc2fd9	-1.4702102
149	0xc0ad6b43	-5.4193435
150	0x40aafe33	5.34353
151	0xc020c172	-2.511807
152	0x3ec6ffe4	0.38867104
153	0x4097be0f	4.7419505
154	0x3fee3529	1.8609973
155	0xbfe791ec	-1.8091407
156	0xbfb062d4	-1.378016
157	0x3eed43c7	0.46340773
158	0xbf42557f	-0.75911707
159	0xbf6b9ddc	-0.9203775
160	0xc09814ba	-4.75253
161	0xbfcfc64d	-1.6232392
162	0x3e7ea1f8	0.24866474
163	0x40675bb0	3.6149712
164	0xc00bfde4	-2.1873713
165	0x3f928b9a	1.1448853
166	0x3fb6c0d4	1.4277596
167	0xc065f973	-3.5933502
168	0xbf7b5197	-0.9817137
169	0x3ee18e74	0.44053996
170	0xbe8cd5d7	-0.27506897
171	0x3f970b06	1.1800239
172	0xc0019dd1	-2.0252573
173	0xbfbfc47b	-1.4981836
174	0x3fec67a2	1.8469126
175	0x4009b66d	2.1517594
176	0xbe7535be	-0.23946282
177	0x3fa9a007	1.3251961
178	0xbf015916	-0.5052656
179	0x3fdff63d	1.7497021
180	0xbe09e97c	-0.13467973
181	0x3faf7f48	1.3710718
182	0xc087c19c	-4.242384
183	0x3e03afd9	0.1286005
184	0x3f0744f2	0.5283958
185	0xbf3f440a	-0.74713194
186	0x40b9ca6a	5.8059587
187	0xbfc01bf6	-1.5008533
188	0xc040d64d	-3.01308
189	0xbe5bb838	-0.21456993
190	0x40519a3d	3.275039
191	0x3bec1e8b	0.0072057894
192	0x3f6612f7	0.8987269
193	0x3d419791	0.047263686
194	0x40a7a46e	5.238822
195	0x3fc1cc2a	1.5140431
196	0xbf2a6a59	-0.66568524
197	0xbefed3e2	-0.4977103
198	0xc01ac0fb	-2.4180286
199	0x3f194ce6	0.5988296
200	0xc0aba199	-5.3634763
201	0x3f6803a1	0.9063054
202	0xbfbe107b	-1.484878
203	0xc02f1e64	-2.73623
204	0xc00ac653	-2.1683547
205	0xc0a99cf5	-5.30041
206	0x403d0adb	2.9537876
207	0xc0be1637	-5.940212
208	0x3eb504a2	0.35355097
209	0x3f515751	0.8177386
210	0xbfdae753	-1.7101845
211	0x40342a8e	2.8150973
212	0xc021c83f	-2.527847
213	0x3fb34f8e	1.4008653
214	0xc0c7d0ee	-6.244254
215	0x4016e2ef	2.357601
216	0x3f237515	0.6385053
217	0xc0372e6c	-2.8622084
218	0xbed4980f	-0.41522262
219	0xc0847f1a	-4.1405153
220	0x4096149f	4.690017
221	0xbfcfdc73	-1.6239151
222	0x3f109d4c	0.56490016
223	0x400c8fab	2.1962688
224	0x3f1c1c8c	0.6098106
225	0xbd5935d5	-0.053029854
226	0xc08cffd3	-4.4062285
227	0xc05f3e26	-3.4881682
228	0xbf412f59	-0.7546287
229	0xbe92ecab	-0.28696188
230	0x3f92e70e	1.1476762
231	0xc05423b5	-3.3146794
232	0xbf53d418	-0.82745504
233	0x410407b9	8.251885
234	0x400303df	2.0471113
235	0xbfd60bcc	-1.672235
236	0x3f6195a7	0.88118976
237	0xc10693ea	-8.411112
238	0xbf91280a	-1.1340344
239	0x3effb9e3	0.49946508
240	0xbfb0a237	-1.3799504
241	0xbe9c1719	-0.30486372
242	0xbf90422a	-1.1270192
243	0x3d54b918	0.05193433
244	0xc00603fa	-2.0939927
245	0x4059e856	3.4048057
246	0xc037a497	-2.8694208
247	0x40002ea9	2.002848
248	0x3eda7809	0.42669705
249	0xc08a85b0	-4.3288193
250	0xc00fd066	-2.2470946
251	0x3fa954cd	1.3229004
252	0xbfb6aec5	-1.4272085
253	0x4024f21a	2.5772767
254	0xc090fd86	-4.5309477
255	0x3f3889b4	0.7208512
