original_motion_optim_inversion_old/4000_inverse_optim.pth (torch, 29907 bytes, 1 tensors)

W f4 [1, 14, 512]
0	0xc0ba75c1	-5.8268743
1	0x3f5921cc	0.84817195
2	0x40de569a	6.9480715
3	0xbe867d41	-0.26267436
4	0xc02e3b60	-2.722374
5	0xc04837c0	-3.1284027
6	0x3ff7be62	1.9354975
7	0x4015486d	2.3325455
8	0xbf8ea1a5	-1.114308
9	0x3ff7624f	1.9326876
10	0x40329e3f	2.7909086
11	0xbe3bc63e	-0.18337342
12	0xbe7938e1	-0.24338104
13	0x3f94287a	1.1574852
14	0x405a8fda	3.41503
15	0xc0022169	-2.0332892
16	0xc02979d3	-2.6480606
17	0x3dc20ea1	0.094754465
18	0xc0180e52	-2.375874
19	0xbf949a3e	-1.1609571
20	0xbfcaf24d	-1.5855194
21	0x3c4d10e8	0.012516238
22	0x3f6d4495	0.9268277
23	0x3feb8a7b	1.8401636
24	0xbfdb5f0f	-1.7138385
25	0x3fbc1a21	1.4695474
26	0xbf8610fe	-1.0473936
27	0x40ac4edb	5.384626
28	0xbf8cebdb	-1.1009477
29	0xbfa50573	-1.2892288
30	0x402c380d	2.690921
31	0x3ef18c09	0.4717715
32	0xc0548b9c	-3.321021
33	0x3f2016c5	0.62534744
34	0xbf3d1446	-0.7385906
35	0x3f3eac09	0.74481255
36	0xc070de02	-3.7635503
37	0x409acd6e	4.837577
38	0x3fc6b6c3	1.5524524
39	0x402f83a2	2.7424092
40	0xbe6e2456	-0.23256049
41	0x3f49d26c	0.78836703
42	0xbd1a90fb	-0.03773592
43	0x3f14ffd8	0.58202887
44	0xbf90f021	-1.1323282
45	0xbf5badf2	-0.85812294
46	0xc003b189	-2.057711
47	0xc07130a3	-3.7685935
48	0xbefc8b2c	-0.4932493
49	0xbde398e2	-0.111131445
50	0xbfd71cd2	-1.680567
51	0xc0d3e8c6	-6.6221647
52	0x3dc0df39	0.09417576
53	0xc0644b26	-3.5670867
54	0xbfa0254f	-1.2511386
55	0xbfdb1b22	-1.7117655
56	0x407f087c	3.9848928
57	0xc08c43f6	-4.383296
58	0xbf1a4d12	-0.6027385
59	0x3f5e1c33	0.8676178
60	0xbf0b58a0	-0.54432106
61	0xc0e169b0	-7.0441513
62	0xbf5ba4a7	-0.85798115
63	0xc036a30a	-2.853701
64	0xc0445b7f	-3.0680845
65	0x3ff5d43f	1.9205397
66	0xbf76116b	-0.9612033
67	0xbfd39d3f	-1.6532363
68	0xbf00958e	-0.502282
69	0xbe328184	-0.17432219
70	0x40509ce5	3.259576
71	0xbfcbb207	-1.5913705
72	0xbf0f3d35	-0.5595277
73	0x3f6fa3d0	0.93609333
74	0x3f80482b	1.0022024
75	0xbf177e7a	-0.5917736
76	0x3f777a20	0.9667072
77	0x404c26b8	3.1898632
78	0x405a2efb	3.4091175
79	0xbfd35f2a	-1.6513417
80	0xc012f664	-2.2962885
81	0xc00a7a5e	-2.1637187
82	0xbf532c10	-0.8248911
83	0xbfaf9445	-1.3717123
84	0x4031b350	2.7765694
85	0x3d9f3b36	0.077749655
86	0xbfed3674	-1.8532243
87	0xc0217f85	-2.5234082
88	0x4019fc3c	2.4060202
89	0x3fa2e52d	1.2726189
90	0xbf622258	-0.88333654
91	0x407ff8f1	3.9995692
92	0x3fee25ca	1.8605282
93	0xc09e676f	-4.950126
94	0xbf90b99c	-1.1306643
95	0x3f155ef6	0.58348024
96	0x3fb2b0a1	1.3960153
97	0x3f7c4df0	0.98556423
98	0x3f8ccf3a	1.100074
99	0x40b4c60c	5.6491756
100	0x3fb908cc	1.445581
101	0x3ff88295	1.941485
102	0x408c8d85	4.3922753
103	0xbfbfc80e	-1.4982927
104	0xc0a8c0d5	-5.273539
105	0xbfcb80fc	-1.5898738
106	0x3f0b2662	0.5435544
107	0xc034efed	-2.827144
108	0xc07a3d27	-3.9099824
109	0x40566ffe	3.3505855
110	0xbfab13a3	-1.3365368
111	0x3f60a469	0.8775087
112	0x3e6c40be	0.23071572
113	0xbe20b292	-0.15693119
114	0x3ee4a727	0.44658777
115	0x3f4aaf19	0.7917343
116	0xc0500c32	-3.2507443
117	0x40043a47	2.066057
118	0x3f6d4cb7	0.9269518
119	0x3da7492c	0.08168253
120	0x40839171	4.111504
121	0x402c1c19	2.689215
122	0x40613471	3.5188258
123	0x40a87bcc	5.265112
124	0x40083b17	2.1286066
125	0x408a3b15	4.319712
126	0xc04561cc	-3.084094
127	0xc0454fe4	-3.0830011
128	0xc061db0a	-3.528994
129	0x3f91e7c8	1.1398859
130	0xbfd94291	-1.697344
131	0x3f029bca	0.51018965
132	0x40296355	2.6466877
133	0x407040c6	3.7539535
134	0x3fee7cae	1.8631799
135	0xbda4c771	-0.08045853
136	0xc0932dbe	-4.599334
137	0xbfba9256	-1.4575908
138	0xbf9cbbe5	-1.2244841
139	0xbe2f72b4	-0.171336
140	0x40509883	3.2593086
141	0xbd733d1d	-0.059384454
142	0x3f8c286f	1.0949839
143	0x3f26b62c	0.6512172
144	0x3d1ba89a	0.038002588
145	0xbddd19fc	-0.10795972
146	0xbf1aec8a	-0.6051718
147	0x3beba375	0.0071911165
148	0xbfb5ff01	-1.4218446
149	0xc0b130c6	-5.537204
150	0x40b03139	5.5060086
151	0xc02dc957	-2.7154138
152	0x3eb763ce	0.35818332
153	0x40a836ac	5.256674
154	0x3ff2ccc0	1.8968735
155	0xbfd5c48e	-1.6700609
156	0xbfa7a408	-1.3096933
157	0x3e25d55c	0.16194671
158	0xbf6c92d5	-0.9241155
159	0xbf5038df	-0.8133678
160	0xc093d70f	-4.6200023
161	0xbfd31972	-1.649214
162	0x3dd8c37a	0.10584159
163	0x40873a16	4.2258406
164	0xc00c75d9	-2.1946929
165	0x3fbdcae1	1.4827539
166	0x3fb4417c	1.4082484
167	0xc062f906	-3.5464492
168	0xbf8d271d	-1.1027561
169	0x3ee2c6fb	0.44292435
170	0xbed92185	-0.42408386
171	0x3fab4fe1	1.3383752
172	0xbff714bd	-1.9303204
173	0xbfc07297	-1.503497
174	0x40190771	2.3910792
175	0x3ffe5fbb	1.9872965
176	0xbdce9351	-0.10086692
177	0x3fa56ed8	1.2924452
178	0xbe86d7ce	-0.2633652
179	0x40007224	2.0069666
180	0xbe1871f5	-0.14887221
181	0x3fdb69cb	1.714166
182	0xc08d2f7a	-4.4120455
183	0x3eb0d429	0.34536865
184	0x3f0cfff9	0.55078083
185	0xbe80df92	-0.2517057
186	0x40beed0a	5.9664354
187	0xbfc6e29f	-1.5537909
188	0xc057c7ae	-3.3715625
189	0xbeef5296	-0.46742696
190	0x4041adbd	3.0262291
191	0xbc6fa141	-0.014625848
192	0x3f5333a1	0.82500654
193	0xbd675511	-0.05647761
194	0x40985a2f	4.7610087
195	0x402266e6	2.5375304
196	0xbf5e6506	-0.868729
197	0xbf3a5bd9	-0.727964
198	0xc02f62bd	-2.7404015
199	0x3f3f5ce4	0.74751115
200	0xc0b65700	-5.69812
201	0x3f89db10	1.0769978
202	0xbfb1f761	-1.3903619
203	0xc032dde0	-2.7947922
204	0xc00ea274	-2.2286654
205	0xc0bfe4ec	-5.9966946
206	0x40558126	3.3360076
207	0xc0bf09ad	-5.969931
208	0x3eb2143b	0.3478106
209	0x3f545620	0.82943916
210	0xc004080a	-2.0629907
211	0x40319e9f	2.7753065
212	0xc01eb2ba	-2.4796586
213	0x3fc108d8	1.5080824
214	0xc0c40f35	-6.1268563
215	0x40019331	2.0246089
216	0x3ed2af5c	0.41149414
217	0xc03c7552	-2.9446607
218	0xbf0a1cca	-0.5395018
219	0xc08560b5	-4.168055
220	0x4082ec97	4.0913806
221	0xbff3dd57	-1.9051923
222	0x3e4bb42d	0.1989295
223	0x400eb01a	2.2294984
224	0x3ea060ba	0.31323797
225	0xbe2e2499	-0.17006148
226	0xc08626f1	-4.1922536
227	0xc06dc270	-3.7149925
228	0xbf34cc4c	-0.7062423
229	0xbf032dbb	-0.51241654
230	0x3fa3a529	1.2784778
231	0xc0508f05	-3.2587292
232	0xbf67b31f	-0.9050769
233	0x4105d564	8.364597
234	0x40097ac2	2.1481175
235	0xbfc559d4	-1.5418038
236	0x3f3c20a8	0.7348733
237	0xc109fe22	-8.624544
238	0xbf782c87	-0.96942943
239	0x3f450f79	0.76976734
240	0xbfb623a8	-1.4229631
241	0xbf0bf0c4	-0.54664254
242	0xbfa09d55	-1.2548014
243	0x3e8c7456	0.27432507
244	0xc0014ed1	-2.0204356
245	0x406efc28	3.7341404
246	0xc02f6202	-2.740357
247	0x4003ab2b	2.0573223
248	0x3f0f2cd4	0.5592778
249	0xc08c3ac0	-4.3821716
250	0xc024d5b2	-2.575543
251	0x3f99c9fc	1.2014766
252	0xbffc2cdd	-1.9701191
253	0x400b925c	2.180808
254	0xc08853f0	-4.2602463
255	0x3f599802	0.8499757
