original_motion_optim_inversion_old/4500_inverse_optim.pth (torch, 29907 bytes, 1 tensors)

W f4 [1, 14, 512]
0	0xc0c201a5	-6.0627007
1	0x3f6d53d4	0.92706037
2	0x40f7785d	7.733443
3	0x3c86ff2b	0.016479095
4	0xc04279d0	-3.0386848
5	0xc046f627	-3.108774
6	0x3ff88112	1.9414389
7	0x40131902	2.2984014
8	0xbfcad1ff	-1.5845336
9	0x40036335	2.05293
10	0x401ac2df	2.418144
11	0xbe669b4b	-0.22520177
12	0xbe4de1a1	-0.20105602
13	0x3f95df6e	1.170881
14	0x405c37ed	3.4409134
15	0xc0006123	-2.0059288
16	0xc022efc3	-2.545884
17	0xbda094c0	-0.07840872
18	0xc016ab53	-2.3542068
19	0xbf5ba3aa	-0.85796607
20	0xbff3eb27	-1.9056138
21	0x3dc3d4fd	0.09562109
22	0x3f810330	1.0079098
23	0x4003ada2	2.0574727
24	0xbfd9580b	-1.6979994
25	0x3faae149	1.3350002
26	0xbf8cfe83	-1.1015171
27	0x40c0e86f	6.0283732
28	0xbf8b339c	-1.0875125
29	0xbf943a95	-1.1580378
30	0x40405596	3.0052238
31	0x3f157c37	0.5839266
32	0xc053bce3	-3.3084037
33	0x3f56e3e9	0.83941513
34	0xbf5baa39	-0.85806614
35	0x3f4d9f92	0.8032161
36	0xc0774f2e	-3.8642077
37	0x409f75bf	4.9831233
38	0x3fb6b51d	1.4274021
39	0x4021ba54	2.5269976
40	0xbd31968f	-0.043356474
41	0x3f38fe8d	0.72263414
42	0x3d802780	0.06257534
43	0x3f28dc04	0.6596072
44	0xbf8ab215	-1.0835596
45	0xbf595d5a	-0.8490807
46	0xc00222f9	-2.0333846
47	0xc080ba08	-4.022709
48	0xbf101388	-0.562798
49	0x3e3c3012	0.18377712
50	0xc0030cca	-2.0476556
51	0xc0d4d849	-6.651402
52	0x3e99ccfa	0.30039197
53	0xc08558c9	-4.167088
54	0xbf940939	-1.1565315
55	0xbff8497c	-1.9397426
56	0x408659e8	4.198475
57	0xc08f4412	-4.4770594
58	0xbe5d5f56	-0.21618399
59	0x3ee8237d	0.45339575
60	0xbed68dc8	-0.41905046
61	0xc0eb53be	-7.3539724
62	0xbf2be4fa	-0.67146266
63	0xc04ccb57	-3.1999109
64	0xc0427c72	-3.0388455
65	0x4001cf96	2.028295
66	0xbf944960	-1.1584892
67	0xbfc27516	-1.5191982
68	0xbece206b	-0.40259108
69	0xbe853cf3	-0.26023063
70	0x404859d6	3.1304832
71	0xbfaebd14	-1.3651452
72	0xbeee2346	-0.46511286
73	0x3f37f83c	0.7186315
74	0x3f9352ab	1.1509603
75	0xbe6db1d8	-0.23212373
76	0x3f7931cb	0.97341603
77	0x40402cdf	3.0027387
78	0x405b857f	3.430023
79	0xbfc5cee4	-1.5453763
80	0xc012106b	-2.282252
81	0xc00ab967	-2.167566
82	0xbfa26514	-1.2687097
83	0xbf63a7ed	-0.8892811
84	0x40454a44	3.0826578
85	0x3e022dff	0.12712859
86	0xbffb76cc	-1.9645629
87	0xc0195c2e	-2.3962512
88	0x404510eb	3.0791576
89	0x3fc4fd72	1.5389845
90	0xbfa2ee9c	-1.2729068
91	0x40879836	4.2373304
92	0x400b8cbc	2.1804647
93	0xc0a887b9	-5.2665677
94	0xbf9d19ff	-1.2273558
95	0x3f5348db	0.82533044
96	0x3fbbd4f1	1.467436
97	0x3f48f349	0.78496224
98	0x3faf970d	1.3717972
99	0x40bc0f90	5.8768997
100	0x3fcca1e0	1.59869
101	0x3ff02321	1.876072
102	0x40939977	4.6124835
103	0xbfd25c88	-1.6434488
104	0xc0aa27d2	-5.317361
105	0xbfc3b6bb	-1.529014
106	0x3f356180	0.708519
107	0xc0241ff3	-2.56445
108	0xc08b733f	-4.357818
109	0x40538af7	3.3053567
110	0xbfb5e798	-1.4211302
111	0x3f8b697c	1.0891566
112	0x3e2d9b61	0.16953804
113	0xbe7bb115	-0.2457927
114	0x3e88b4df	0.26700494
115	0x3efa527b	0.48891053
116	0xc04c74cf	-3.1946294
117	0x400e2fe0	2.221672
118	0x3f618d01	0.8810578
119	0x3e1c84b9	0.15285005
120	0x408b28ac	4.348715
121	0x40322fac	2.7841597
122	0x4060c8c8	3.5122547
123	0x40a07898	5.014721
124	0x4011e0e3	2.279351
125	0x40963bf3	4.694818
126	0xc0410fcc	-3.0165892
127	0xc036b6e7	-2.8549135
128	0xc06796e4	-3.6185846
129	0x3fa13216	1.259341
130	0xbfecb254	-1.8491921
131	0x3eed81df	0.46388146
132	0x406a52d3	3.6613052
133	0x405bccc0	3.434372
134	0x3ffc2c72	1.9701064
135	0xbeb5457a	-0.3540457
136	0xc09adecf	-4.8396983
137	0xbfe79ae1	-1.809414
138	0xbfcfa65e	-1.6222646
139	0xbd9a93a9	-0.07547695
140	0x4058a4bf	3.3850553
141	0x3effff21	0.49999335
142	0x3f8a542f	1.0806941
143	0x3f7a5f0c	0.9780128
144	0x3e9c89fa	0.30574018
145	0x38313853	4.2252545e-05
146	0xbf391576	-0.7229837
147	0xbd8b8550	-0.06812537
148	0xbfc643ac	-1.5489402
149	0xc0b187ec	-5.547842
150	0x40b54148	5.664219
151	0xc035bd6f	-2.839687
152	0x3f181d73	0.59419936
153	0x40c101df	6.0314784
154	0x3ff67b72	1.9256423
155	0xbfa68e7a	-1.301223
156	0xbfa4952d	-1.2858025
157	0x3e5f6a43	0.2181788
158	0xbf8d942e	-1.1060846
159	0xbf20dee3	-0.628401
160	0xc08f5d60	-4.4801483
161	0xbfe49de7	-1.7860688
162	0x3c971fee	0.018447842
163	0x4094b17f	4.646667
164	0xc013c417	-2.3088434
165	0x3fc6b141	1.5522844
166	0x3f6c69a5	0.923487
167	0xc0590c2c	-3.391368
168	0xbf90dc8c	-1.1317306
169	0x3e97a2a2	0.29616266
170	0xbf2d37d4	-0.6766331
171	0x3fd924d7	1.6964368
172	0xbfe4c1b3	-1.7871612
173	0xbfcc4714	-1.5959191
174	0x404be85a	3.1860566
175	0x3ff69760	1.9264946
176	0x3ccf7bfd	0.025327677
177	0x3fc6215e	1.5478933
178	0xbea05a7e	-0.3131904
179	0x40171603	2.3607185
180	0xbe53f5e9	-0.20699276
181	0x3ffab3ba	1.9586098
182	0xc08e6325	-4.4496026
183	0x3ed4803c	0.41504085
184	0x3f527216	0.8220533
185	0xbb95aad8	-0.0045674853
186	0x40cae028	6.339863
187	0xbfd274eb	-1.644193
188	0xc05d5e91	-3.4588969
189	0xbf32ac97	-0.697946
190	0x4035b255	2.8390095
191	0xbde93f85	-0.113890685
192	0x3f8e9bcb	1.1141294
193	0xbdfad601	-0.12247849
194	0x40920ffe	4.564452
195	0x4052f90d	3.2964509
196	0xbf8e606c	-1.1123176
197	0xbf0287a2	-0.5098821
198	0xc033a96f	-2.8072164
199	0x3f1eddb6	0.62057054
200	0xc0bfa7f3	-5.9892516
201	0x3f887dc0	1.0663376
202	0xbfed9307	-1.8560494
203	0xc0274704	-2.6137094
204	0xc015def4	-2.341733
205	0xc0da51ce	-6.822486
206	0x40726b33	3.787793
207	0xc0c659ff	-6.198486
208	0x3ed967e0	0.42462063
209	0x3f24dd8f	0.6440057
210	0xc012dbb6	-2.29466
211	0x402f0336	2.734571
212	0xc01b850f	-2.4299963
213	0x3fd61e18	1.6727934
214	0xc0cb1013	-6.345712
215	0x3ff82fd4	1.9389596
216	0xbeaa07f3	-0.3320919
217	0xc03c4a66	-2.942041
218	0xbf2a98d7	-0.66639465
219	0xc08ce126	-4.402484
220	0x408316d7	4.096538
221	0xc00a145d	-2.1574929
222	0x3dd1718e	0.10226737
223	0x4010373d	2.2533715
224	0x3e906f41	0.2820988
225	0xbe36fad9	-0.17869128
226	0xc07d4376	-3.9572425
227	0xc070fc76	-3.765409
228	0xbebf353f	-0.3734531
229	0xbf3d969a	-0.74057925
230	0x3fb22c9b	1.3919863
231	0xc052e896	-3.295446
232	0xbf35d141	-0.7102242
233	0x41072dc3	8.448672
234	0x40085d25	2.130685
235	0xbfbf3cbd	-1.4940411
236	0x3f51c3bf	0.8193931
237	0xc1100f5f	-9.003753
238	0xbf89de57	-1.0770978
239	0x3f657664	0.89633775
240	0xbfbdb69a	-1.482135
241	0xbf371a2b	-0.71524304
242	0xbfb87fc7	-1.4413995
243	0x3ecd5f6b	0.4011186
244	0xbffcba30	-1.974432
245	0x407c2673	3.9398468
246	0xc02e6202	-2.724732
247	0x400bb898	2.1831417
248	0x3f0235c9	0.5086332
249	0xc08cefd9	-4.4042783
250	0xc028c66a	-2.6371102
251	0x3fb36298	1.4014463
252	0xc02c0a31	-2.688122
253	0x400c4985	2.1919873
254	0xc07c3476	-3.940702
255	0x3f5ff320	0.87480354
