original_motion_optim_inversion_old/5000_inverse_optim.pth (torch, 29907 bytes, 1 tensors)

W f4 [1, 14, 512]
0	0xc0ca6729	-6.325093
1	0x3f77a500	0.96736145
2	0x40fdbb10	7.929085
3	0x3eead021	0.45861915
4	0xc0563dc7	-3.3475206
5	0xc046252b	-3.0960186
6	0x3ffdfd05	1.984284
7	0x4010f9c8	2.2652454
8	0xbff3eabb	-1.9056009
9	0x40066080	2.09964
10	0x40011c29	2.0173438
11	0xbec28049	-0.379885
12	0xbe8aff3e	-0.2714786
13	0x3fb54c43	1.4163898
14	0x40599431	3.39967
15	0xc014258b	-2.3147914
16	0xc014cf5c	-2.3251562
17	0xbda02169	-0.078188725
18	0xc00cb2a8	-2.1984043
19	0xbf54a039	-0.8305698
20	0xc00b6542	-2.1780553
21	0x3da4b4f6	0.08042328
22	0x3fa6633f	1.2999038
23	0x400a8609	2.1644309
24	0xbff9b6e5	-1.950894
25	0x3f81143e	1.0084302
26	0xbf8f7fb1	-1.1210843
27	0x40cbb326	6.3656187
28	0xbf843b65	-1.0330626
29	0xbf8301da	-1.023494
30	0x404ce92f	3.2017324
31	0x3ef8ec4d	0.48617783
32	0xc082904d	-4.080115
33	0x3f3dd94b	0.7415969
34	0xbf828c67	-1.0199097
35	0x3f8cc9de	1.0999105
36	0xc0851d86	-4.159854
37	0x409e926f	4.955375
38	0x3f8c2664	1.0949216
39	0x4014c5ae	2.3245654
40	0x3e3f7faa	0.18701044
41	0x3f402de3	0.7507002
42	0xbd85f23e	-0.06540345
43	0x3f467672	0.77524483
44	0xbf64aeb7	-0.89329094
45	0xbf193275	-0.59842616
46	0xbfdfc773	-1.7482742
47	0xc0890157	-4.2814136
48	0xbf7847aa	-0.9698435
49	0x3e545401	0.2073517
50	0xc0135cd0	-2.3025398
51	0xc0d5ae24	-6.6775074
52	0x3de6d503	0.112710975
53	0xc08c6e1a	-4.38844
54	0xbf67cabd	-0.9054373
55	0xc00e44a5	-2.2229397
56	0x408d0ccd	4.4078126
57	0xc0952a25	-4.6613946
58	0x3df9b875	0.121933855
59	0x3f0c06d2	0.54697907
60	0xbef94104	-0.48682415
61	0xc0e6f8f6	-7.2178907
62	0xbf424268	-0.7588258
63	0xc057a6de	-3.3695598
64	0xc03ac7f0	-2.9184532
65	0x40119c27	2.2751558
66	0xbf69ad9a	-0.9128052
67	0xbfba7505	-1.4566962
68	0xbebdc3a0	-0.37063313
69	0xbf1bf3ac	-0.6091869
70	0x405cf27e	3.4523005
71	0xbf7fd2cf	-0.99931043
72	0xbec44836	-0.38336343
73	0x3ef208c6	0.4727232
74	0x3faf9718	1.3717985
75	0xbd7b2307	-0.0613127
76	0x3f6bee3f	0.9216041
77	0x402f9209	2.7432883
78	0x404ff193	3.2491195
79	0xbfbeab92	-1.4896109
80	0xc015c481	-2.3401186
81	0xc016272f	-2.3461416
82	0xbfb8445b	-1.439586
83	0xbf3d18e7	-0.7386612
84	0x40399800	2.8999023
85	0x3e3a743d	0.18208404
86	0xbfe5ee16	-1.7963283
87	0xc02b90ea	-2.6807199
88	0x407d9c70	3.9626732
89	0x3ffb7313	1.9644493
90	0xbfc2d4b4	-1.5221162
91	0x408f8ee6	4.4861937
92	0x400881a3	2.1329124
93	0xc0b21ef9	-5.566281
94	0xbf98163a	-1.1881783
95	0x3f9b0bfe	1.2113035
96	0x3fc683ab	1.5508932
97	0x3ed8bd6e	0.42332023
98	0x3fc2b01a	1.5209992
99	0x40c5b2cd	6.1780763
100	0x3fd3ed72	1.6556838
101	0x4005023c	2.0782614
102	0x409fc479	4.9927335
103	0xbfd0688b	-1.6281904
104	0xc0b51079	-5.658261
105	0xbfeacebc	-1.834434
106	0x3f5ffa33	0.8749115
107	0xc01d1b9b	-2.45481
108	0xc09fca12	-4.993417
109	0x403b92a8	2.9308262
110	0xbfcd8fad	-1.6059471
111	0x3f9c10c3	1.2192615
112	0x3e1138c6	0.14181814
113	0xbe97ff88	-0.29687142
114	0x3baf8f4f	0.00535766
115	0x3f405fd2	0.7514621
116	0xc052616d	-3.2871964
117	0x400f73c1	2.24144
118	0x3f9bca7c	1.2171168
119	0x3ddd7338	0.10812992
120	0x408fdaf1	4.4954762
121	0x403ef53c	2.983718
122	0x405211c0	3.2823334
123	0x4098bd5a	4.773114
124	0x402854b8	2.6301708
125	0x409bc45e	4.8677206
126	0xc04c0d2e	-3.1883044
127	0xc03e7bf3	-2.9763153
128	0xc07a925e	-3.9151835
129	0x3f9f60f3	1.2451462
130	0xc004b051	-2.0732615
131	0x3f0d254f	0.55135053
132	0x407a6a54	3.9127398
133	0x403f9331	2.9933589
134	0x400863b3	2.1310852
135	0xbefa2108	-0.48853326
136	0xc09f3b68	-4.9760017
137	0xbfd6a645	-1.6769491
138	0xbfdecd24	-1.7406354
139	0x3d97bfc5	0.07409624
140	0x406cb45e	3.6985087
141	0x3f5b8397	0.85747665
142	0x3f821efd	1.0165707
143	0x3f3897fd	0.72106916
144	0x3eb79126	0.35852927
145	0x3d368989	0.044564757
146	0xbf5f0896	-0.87122476
147	0x3b3b0e36	0.0028542406
148	0xbfbe7880	-1.4880524
149	0xc0b8d1d5	-5.7756143
150	0x40bf3adc	5.975935
151	0xc04ecf51	-3.2314036
152	0x3f6c754f	0.923665
153	0x40cb58f6	6.3546095
154	0x3ffe8dcd	1.9887024
155	0xbf6ccf9f	-0.92504305
156	0xbfa7cd7e	-1.3109586
157	0x3eeba439	0.4602373
158	0xbfb022e5	-1.3760649
159	0xbef55d27	-0.47922632
160	0xc0930193	-4.593942
161	0xbfea642e	-1.8311822
162	0xbc3ac32b	-0.011399071
163	0x40a1fab0	5.0618515
164	0xc01ae78d	-2.4203827
165	0x40036b73	2.0534332
166	0x3e5bd7e7	0.21469079
167	0xc0603b80	-3.5036316
168	0xbf838cb4	-1.0277314
169	0x3e4b9798	0.19882047
170	0xbf9ab0b0	-1.2085171
171	0x400ccf9b	2.2001712
172	0xbfd8071c	-1.687717
173	0xbfc9b69d	-1.5758854
174	0x405d2ce9	3.455866
175	0x40002c69	2.0027106
176	0x3e6541c3	0.22388367
177	0x3fecb677	1.8493184
178	0xbe36feee	-0.17870685
179	0x40268278	2.6017132
180	0xbe155b94	-0.14585716
181	0x4003e3af	2.0607717
182	0xc090098c	-4.5011654
183	0x3f1e4f09	0.6183935
184	0x3f005370	0.50127316
185	0x3edad71c	0.4274224
186	0x40d0d25f	6.52568
187	0xbfee487c	-1.861587
188	0xc081af0b	-4.0526175
189	0xbf873c4e	-1.0565279
190	0x4033d3e2	2.8098073
191	0xbe0e7844	-0.13913065
192	0x3fa4f66a	1.28877
193	0xbde0eb7f	-0.10982417
194	0x4078e6f5	3.8890965
195	0x40609809	3.5092795
196	0xbf931e06	-1.1493537
197	0xbc1b8719	-0.009492659
198	0xc02eb46d	-2.7297623
199	0x3f4b7a6e	0.7948369
200	0xc0c94de0	-6.290756
201	0x3f6055dd	0.87631017
202	0xc0142558	-2.3147793
203	0xc0137bb9	-2.3044264
204	0xc01c9a41	-2.446915
205	0xc0ed447e	-7.414611
206	0x4076e003	3.8574226
207	0xc0d06622	-6.5124674
208	0x3f087751	0.5330706
209	0x3f301486	0.68781316
210	0xc0155f0d	-2.3339264
211	0x402670dd	2.6006386
212	0xc023a985	-2.5572217
213	0x3ff1c9fe	1.8889768
214	0xc0d59c07	-6.6752963
215	0x3fec06e9	1.8439609
216	0xbf130403	-0.57427996
217	0xc03539c0	-2.8316498
218	0xbf63be25	-0.8896201
219	0xc08d156f	-4.4088664
220	0x4083897c	4.1105328
221	0xc0071738	-2.1107922
222	0xbe00406d	-0.12524576
223	0x3fea243c	1.8292308
224	0x3e153530	0.1457107
225	0x3e840efc	0.25792682
226	0xc0746c1d	-3.8190987
227	0xc087cb79	-4.243588
228	0xbebdc0fa	-0.37061292
229	0xbf240c95	-0.640817
230	0x3fea9677	1.8327168
231	0xc06a0a04	-3.6568613
232	0xbf223b53	-0.6337177
233	0x4107e0e2	8.492403
234	0x400dbce1	2.2146533
235	0xbfbc5aa3	-1.471516
236	0x3f410929	0.754046
237	0xc11854fe	-9.52075
238	0xbf8b5d04	-1.0887761
239	0x3f6e592b	0.9310481
240	0xbfd3f8ff	-1.6560363
241	0xbf658dcf	-0.8966951
242	0xbf9fdb26	-1.2488754
243	0x3f43c757	0.76476043
244	0xbffebfaa	-1.9902241
245	0x4084cfa4	4.1503468
246	0xc02fe792	-2.748509
247	0x400cadc9	2.198107
248	0x3f15ca7d	0.585121
249	0xc0907ad0	-4.5149918
250	0xc03bf67d	-2.9369195
251	0x3fc41e63	1.5321773
252	0xc03b9ecf	-2.931568
253	0x40010c29	2.0163672
254	0xc0749d94	-3.8221178
255	0x3f850f22	1.0395243
