original_motion_optim_inversion_old/500_inverse_optim.pth (torch, 29902 bytes, 1 tensors)

W f4 [1, 14, 512]
000000 82 e0 83 c0 a8 c6 48 3f 94 c2 84 be 2e 39 d5 bf
       -4.1211557 0.78428125 -0.259297 -1.6658075
000010 32 84 d4 bf da 02 e9 be 96 ab 0e 3f 75 97 15 bf
       -1.6602843 -0.45509988 0.5573057 -0.5843423
000020 88 23 74 3f 42 20 d1 3f 19 6e 4e 40 12 9b 4f be
       0.95366716 1.6337969 3.2254698 -0.20273998
000030 d0 61 27 be 86 12 2b 3f 3b 37 5d 3f b0 29 a2 bf
       -0.16345906 0.6682514 0.864124 -1.2668972
000040 22 09 09 c0 e2 3c c2 3e 11 49 6e bf a6 f4 36 be
       -2.1411824 0.37937075 -0.9308024 -0.17866763
000050 45 22 d5 be fd 15 96 bf c1 c6 22 3f 9d b8 7c 3f
       -0.41627708 -1.172546 0.63584524 0.987192
000060 cf 1c 98 bf 9b 81 d5 3e a5 cc b2 bf c0 d6 4c 40
       -1.1883792 0.41700444 -1.3968703 3.2006073
000070 06 3d 2b bf 32 a0 04 c0 78 d7 e2 3d 3a 5b 82 bf
       -0.6688999 -2.0722775 0.11076254 -1.018409
000080 b2 56 08 c0 f8 d7 1f 3f 64 79 32 3f 15 96 92 bf
       -2.1302915 0.6243892 0.6971648 -1.1452051
000090 b9 b5 9e bf 1c af 37 40 74 ce 2d 40 66 4f 30 3f
       -1.2399207 2.8700628 2.715726 0.6887115
0000a0 f4 79 ea bf 91 aa 20 3f 6c 0d 61 40 53 12 d3 3f
       -1.8318467 0.62760264 3.5164442 1.6489967
0000b0 e9 ab e3 bf 10 2b 2b bf bf 07 48 c0 aa eb 1f c0
       -1.7786838 -0.66862583 -3.1254728 -2.4987588
0000c0 7f cf 32 bf 8f fa ba 3e a8 00 08 be 60 da 97 c0
       -0.69847864 0.36519286 -0.132815 -4.745407
0000d0 5b 94 86 3e c7 17 90 bf 00 ee eb bf 0c e5 0c bf
       0.2628506 -1.1257256 -1.8432007 -0.55037
0000e0 6e f8 1a 40 2a 6a 3d c0 af 8d 02 be e4 c1 6a 3c
       2.421413 -2.9596047 -0.1274936 0.014328454
0000f0 50 1d 1e bf 55 c3 9a bf 94 91 15 bf 7f f9 a4 c0
       -0.6176348 -1.2090861 -0.5842526 -5.155456
000100 a1 b4 00 c0 e1 ec cf 3f b9 cb a5 be 4e 32 e4 bf
       -2.0110247 1.6244165 -0.3238199 -1.7827852
000110 89 c0 95 3d 14 be d4 3d f2 36 08 40 00 07 b5 3d
       0.07312114 0.10387817 2.1283536 0.08839226
000120 f9 7f ee be 51 67 b0 3f 12 58 54 bd 49 ea 9e bf
       -0.4658201 1.378153 -0.051841803 -1.2415248
000130 b4 e0 43 3f df 1c 3f 40 47 85 2f 40 9d ce 32 bf
       0.76514745 2.9861372 2.7425096 -0.69846517
000140 5f 79 0d c0 44 7c cc bf 7f ff 13 3f 3e b4 c7 bf
       -2.210533 -1.5975423 0.5781173 -1.560188
000150 83 6d 62 3f 2a 5a b6 3e 0a f6 2e c0 ce ff 9e bf
       0.8844835 0.35615665 -2.733767 -1.2421815
000160 96 9e 81 bf fc d6 89 bf 89 40 f5 3e 4f dd 8f 40
       -1.0126522 -1.0768733 0.479008 4.495765
000170 d3 2e 0d 3f 4b 10 24 c0 75 6d e7 bf f5 c8 1a bf
       0.55149573 -2.5634944 -1.8080279 -0.60462886
000180 00 53 b6 be f1 c5 0d 40 a5 0a 68 3f ff cc 38 40
       -0.356102 2.2152064 0.9064124 2.887512
000190 a5 8d c2 3f c2 d3 84 3f ef e1 03 40 ea 5c fe 3f
       1.5199476 1.0377123 2.060665 1.9872105
0001a0 6c 4c a4 c0 83 55 b9 3f 1d eb 73 3d ab 0e 5e c0
       -5.134329 1.4479221 0.059550393 -3.4696453
0001b0 99 bd 90 bf ed 2f 6a 40 54 cb b9 bf 36 63 d3 bb
       -1.1307861 3.6591752 -1.4515176 -0.006451036
0001c0 45 28 50 3e 46 57 80 bf 07 39 e4 3e 59 b8 1f 40
       0.20327862 -1.0026634 0.44574758 2.4956267
0001d0 3f b5 01 bf ee 11 cc 3f 1e 12 02 bd e6 64 5f 3f
       -0.50667185 1.5942972 -0.03175556 0.87263334
0001e0 9f 1c f4 3f 1f df cf 3f 35 59 1c 40 ac 91 a2 40
       1.9071234 1.6239966 2.4429448 5.080282
0001f0 b8 b2 10 3e 74 a1 2b 40 93 fa 1a 3d 05 f5 02 bd
       0.14130676 2.6817293 0.037836622 -0.03197195
000200 fd f8 86 bf 90 a5 a9 3f 38 7b 22 3f 09 67 83 3e
       -1.0544735 1.3253651 0.63469267 0.25664547
000210 af ee 38 40 29 f7 48 40 fb 12 ef 3f b9 76 19 3f
       2.889568 3.1400855 1.8677667 0.5994678
000220 82 b3 0a c0 0b 88 2a bf 61 ad a3 3f 81 f4 d2 3e
       -2.1672063 -0.66613835 1.2787286 0.41202167
000230 f0 e1 17 40 03 08 5f bf e8 78 04 40 a9 b9 06 3f
       2.3731651 -0.871216 2.0698795 0.52627045
000240 67 a9 55 bf c4 b8 97 be 90 9b 87 3e cd 8a e9 bd
       -0.8346161 -0.29633152 0.26485872 -0.11403427
000250 65 18 a5 bf 80 51 4b c0 b5 97 7e 40 7a bb 9c bf
       -1.289807 -3.1768494 3.9780095 -1.2244713
000260 ca 88 28 bf d4 bd 01 40 d5 a4 01 40 a4 22 20 c0
       -0.65833724 2.0272112 2.0256855 -2.5021143
000270 81 06 c0 bf 2d da f9 3f c1 a9 06 bf 7e 31 17 bf
       -1.5001985 1.9519707 -0.52602774 -0.59059894
000280 9c 7f e3 bf f5 53 84 bf 01 a2 8d 3e d5 dc ae 3f
       -1.7773318 -1.0338122 0.27662662 1.3661143
000290 f1 db 17 ba a4 18 1f 3d 70 90 64 40 8b f8 fd be
       -0.00057929667 0.03884186 3.5713158 -0.49603686
0002a0 04 d0 b5 bd 4f 25 c8 3e 9d fd 86 3e d1 5e eb 3f
       -0.088775665 0.39090964 0.26365367 1.8388311
0002b0 d8 3e 2a c0 43 23 cc bf 77 9a 92 3f 4a 82 16 40
       -2.6600857 -1.5948261 1.1453389 2.3517022
0002c0 d0 d1 e0 be e9 bf cf 3f ec 4e b1 be 58 68 89 3f
       -0.43910074 1.6230441 -0.34630525 1.0734968
0002d0 c4 07 e2 bf b5 0d 3f bf be c8 8a c0 0d 93 01 3f
       -1.765862 -0.7463029 -4.3370047 0.50615007
0002e0 e5 f3 33 be 3c cd 6d 3e 78 70 68 40 bd 3e 88 bf
       -0.17573507 0.23222822 3.6318645 -1.0644146
0002f0 88 9f b2 bf 01 b0 03 bf 98 e5 11 40 11 0d 10 3e
       -1.3954935 -0.51440436 2.2796383 0.14067484
000300 e8 c8 36 40 64 19 82 be a6 6f 5f 40 58 96 8a bf
       2.8560123 -0.25409997 3.4911895 -1.0827131
000310 e9 fc 71 be f8 e3 91 3f f1 57 a2 bf 8c c7 86 be
       -0.23631634 1.1397696 -1.2683088 -0.26324117
000320 3c 63 18 c0 6e d9 b1 3f 79 5b 25 bf 73 e9 2a c0
       -2.3810568 1.3894479 -0.645927 -2.6704986
000330 ac 09 96 bf f6 c8 4d c0 7c a6 27 be 82 4a 15 c0
       -1.1721702 -3.2153907 -0.16372102 -2.3326726
000340 86 97 01 3f 41 a4 b1 3e b6 a2 7c bf 13 2a cf 3f
       0.5062183 0.34695628 -0.9868578 1.6184715
000350 13 d7 c8 bf 74 be ce 3e 2b 06 a3 c0 cb c9 28 40
       -1.5690635 0.4037968 -5.094503 2.6373165
000360 e9 66 83 3f 40 37 00 c0 b9 c7 16 3f 55 a2 95 3d
       1.0265781 -2.0033722 0.588985 0.07306353
000370 dc 7c bd 40 86 8c 51 bf 90 bf eb 3e a1 2d 88 3f
       5.9214916 -0.81855047 0.46044588 1.0638925
000380 5e 8a a3 be 30 a3 9d bf 31 42 20 c0 92 e2 cd bf
       -0.31941503 -1.2315426 -2.50404 -1.6084769
000390 c7 67 9e bf 55 ca 8f 3d d8 b0 9d 3f e6 2b b6 3c
       -1.237542 0.07021014 1.2319593 0.02223773
0003a0 3d 55 4a bf bf e0 60 40 70 bd 95 3f d6 65 f5 bf
       -0.79036313 3.5137174 1.1698437 -1.9171703
0003b0 e6 bb b3 3f 45 03 8c c0 54 ba 17 bf 6b 49 d1 be
       1.4041717 -4.375399 -0.5926869 -0.40876326
0003c0 17 1e a2 bf 99 7a 76 3e 5a ca 99 bf 9b a7 64 3d
       -1.2665433 0.24070205 -1.2014878 0.055823904
0003d0 ac e8 fd bf 5f 57 e1 3f ae 82 e2 bf 01 a6 60 3f
       -1.9836631 1.7604789 -1.769613 0.877533
0003e0 3c 0c 22 bf f5 4b e0 bf 66 35 3c be 81 60 d2 3f
       -0.6329992 -1.752318 -0.18379745 1.6435701
0003f0 e5 75 b8 bf e1 8f 90 bf ec db 82 c0 60 4b 68 be
       -1.4410979 -1.1293908 -4.089346 -0.22685003
