original_motion_optim_inversion_old/5500_inverse_optim.pth (torch, 29907 bytes, 1 tensors)

W f4 [1, 14, 512]
0	0xc0ce674e	-6.4501104
1	0x3f67cf30	0.9055052
2	0x4104159d	8.255277
3	0x3f2f24bb	0.6841542
4	0xc04effda	-3.234366
5	0xc036a8e1	-2.8540576
6	0x3ff4ef33	1.9135498
7	0x400344ab	2.0510662
8	0xc0048734	-2.0707521
9	0x40068c76	2.102323
10	0x3fcd1e9e	1.6024969
11	0xbeca00b9	-0.39453676
12	0xbea576b6	-0.32317132
13	0x3fae5579	1.3619834
14	0x405e7c30	3.4763298
15	0xc016691d	-2.3501656
16	0xc011cbce	-2.2780643
17	0xbee3ea08	-0.4451449
18	0xbff847f1	-1.9396955
19	0xbf43b6c4	-0.76450753
20	0xc00a2177	-2.1582925
21	0xbde923c4	-0.11383775
22	0x3fb5bb89	1.4197856
23	0x4007498d	2.1138642
24	0xc00e834e	-2.2267642
25	0x3f85fe42	1.0468218
26	0xbf8ed523	-1.1158794
27	0x40cab5fe	6.334716
28	0xbf8b7e5a	-1.0897934
29	0xbf5c7a4a	-0.861241
30	0x405d7309	3.4601462
31	0x3f55c09c	0.83497024
32	0xc085e2eb	-4.18395
33	0x3f605d1f	0.8764209
34	0xbf998476	-1.1993549
35	0x3f813a4f	1.0095919
36	0xc0959619	-4.6745725
37	0x40a5c135	5.179835
38	0x3f85cfed	1.0454079
39	0x401cd1ee	2.450313
40	0x3e2bf737	0.16793524
41	0x3f095da8	0.53658533
42	0xbea2cc92	-0.317967
43	0x3f4b134a	0.7932631
44	0xbf6e04a3	-0.92975825
45	0xbf035959	-0.5130821
46	0xbfed47aa	-1.8537495
47	0xc08c0d8e	-4.3766546
48	0xbf8e5d57	-1.1122235
49	0x3e788dea	0.24272886
50	0xc013c04f	-2.3086126
51	0xc0c4f90f	-6.1554027
52	0x3cdc4ed1	0.026893051
53	0xc09707a6	-4.7196836
54	0xbf2c7957	-0.6737265
55	0xc000e62b	-2.0140483
56	0x409bdf62	4.8710184
57	0xc093c221	-4.6174474
58	0x3e157ce7	0.14598428
59	0x3f029860	0.51013756
60	0xbf0fbabd	-0.56144315
61	0xc0edefd7	-7.4355273
62	0xbf213301	-0.6296845
63	0xc0610d70	-3.5164452
64	0xc043007b	-3.0469043
65	0x4018775f	2.3822858
66	0xbf7b21ac	-0.98098254
67	0xbfa76790	-1.307848
68	0xbeb74ec9	-0.35802296
69	0xbf5a2829	-0.8521753
70	0x40430dbd	3.0477135
71	0xbf44fdf3	-0.76949996
72	0x3d053749	0.032523427
73	0x3ef608fa	0.48053724
74	0x3f8e3b28	1.1111803
75	0x3e1e3830	0.15451121
76	0x3f53a333	0.826709
77	0x402fbe60	2.7459946
78	0x40301215	2.7511036
79	0xbfb5c8b0	-1.420187
80	0xc0255435	-2.5832646
81	0xc01e23b2	-2.4709287
82	0xbf8fe684	-1.1242223
83	0xbf5cdb8e	-0.86272514
84	0x40320cf3	2.7820404
85	0x3e8ff851	0.28119138
86	0xbfe111fc	-1.7583613
87	0xc046bf95	-3.1054432
88	0x408b8b78	4.360775
89	0x40178d27	2.3679903
90	0xbfb57b38	-1.4178228
91	0x409041ee	4.508048
92	0x3ffe5eca	1.9872677
93	0xc0b8ef8f	-5.779243
94	0xbf879f30	-1.0595455
95	0x3fbaa421	1.4581338
96	0x3fdd95b1	1.7311307
97	0x3f3212c5	0.6955989
98	0x3fc7703f	1.558113
99	0x40c68b61	6.204514
100	0x3fe3904f	1.7778414
101	0x40020f7d	2.0321953
102	0x40a44166	5.132983
103	0xbfff6f7e	-1.99559
104	0xc0b41ec4	-5.6287556
105	0xc00c62f0	-2.1935387
106	0x3f2e719f	0.6814212
107	0xc00fc04f	-2.2461126
108	0xc0af928f	-5.4866405
109	0x4026b6a6	2.604898
110	0xbfd6e85c	-1.678966
111	0x3f94c270	1.1621838
112	0x3d9d9a1f	0.07695412
113	0xbf005e35	-0.5014375
114	0x3dcfdac9	0.10149152
115	0x3f2b36ba	0.6688038
116	0xc05cc58b	-3.449557
117	0x401e7e7f	2.4764707
118	0x3fe35e37	1.7763127
119	0xbd9ceec6	-0.0766273
120	0x4095346b	4.6626487
121	0x4056a7a7	3.3539827
122	0x405d8fd5	3.4619038
123	0x409a7e0b	4.827886
124	0x402de2ee	2.7169757
125	0x409bda1a	4.8703737
126	0xc0595e1a	-3.3963685
127	0xc050ac4a	-3.2605157
128	0xc08a7935	-4.327296
129	0x3f9ea1f0	1.2393169
130	0xbffb44fb	-1.9630426
131	0x3ec84c72	0.39120823
132	0x4088c8b3	4.2744994
133	0x402ca7de	2.6977458
134	0x4020d53b	2.5130146
135	0xbdf41fde	-0.11920141
136	0xc0a49e55	-5.1443276
137	0xbfae83f8	-1.3634024
138	0xbfe45daa	-1.7841084
139	0x3db2c873	0.08729639
140	0x4085dd3f	4.1832576
141	0x3f87b636	1.0602481
142	0x3f8fa2cf	1.122156
143	0x3f3b4b7b	0.7316205
144	0x3eb3088f	0.34967467
145	0x3eb3fe07	0.35154745
146	0xbf560ad0	-0.8361025
147	0x3e00f57a	0.12593642
148	0xbfb207d2	-1.3908637
149	0xc0c06adc	-6.0130444
150	0x40d0fa61	6.530564
151	0xc044c4c8	-3.0745106
152	0x3f061af2	0.52384865
153	0x40d81c34	6.753443
154	0x40075517	2.1145685
155	0xbf752ef3	-0.95774764
156	0xbf99e6ef	-1.20236
157	0x3ec24cac	0.3794912
158	0xbfc206c8	-1.515832
159	0xbee23475	-0.44180647
160	0xc08eff5d	-4.4686723
161	0xbfd5f701	-1.6716005
162	0xbca0a5c5	-0.019610295
163	0x409489b4	4.6418095
164	0xc02a1b02	-2.6578984
165	0x40138cc6	2.3054671
166	0x3e9fde4b	0.31224284
167	0xc05c9036	-3.446302
168	0xbf822d3f	-1.0170058
169	0x3d309438	0.043110102
170	0xbfb8864c	-1.4415984
171	0x401eaf89	2.4794638
172	0xbfd7f99e	-1.6873052
173	0xbfa497d1	-1.2858831
174	0x4072e724	3.7953577
175	0x3fee01b3	1.8594269
176	0x3ebfed47	0.37485716
177	0x3fed6e27	1.8549241
178	0xbe6e0b7e	-0.23246571
179	0x40167be5	2.351312
180	0xbe95de47	-0.29271147
181	0x401b90ba	2.4307084
182	0xc08982c7	-4.297214
183	0x3ebb0c2a	0.36532718
184	0x3dd6fe23	0.104976915
185	0x3f034a8b	0.5128562
186	0x40c4a22f	6.144798
187	0xc010f80b	-2.2651393
188	0xc08c6b62	-4.3881083
189	0xbf8e47ae	-1.1115625
190	0x40503505	3.253236
191	0xbe1d57f6	-0.15365586
192	0x3fa9454f	1.3224276
193	0xbcbd186a	-0.02308293
194	0x406e0565	3.7190793
195	0x40707f25	3.7577603
196	0xbfa23f29	-1.2675525
197	0x3e3f251b	0.18666498
198	0xc03741bf	-2.8633878
199	0x3f1a4550	0.6026201
200	0xc0c7f089	-6.248112
201	0x3f52c9b6	0.82339036
202	0xc0237bc7	-2.5544298
203	0xc00acc26	-2.1687102
204	0xc0172d73	-2.362149
205	0xc0fa1cff	-7.8160396
206	0x40950eea	4.6580706
207	0xc0d0e340	-6.5277405
208	0x3f0efe70	0.5585699
209	0x3f22578a	0.63414824
210	0xc01afd93	-2.421727
211	0x402ed0eb	2.7315013
212	0xc022fb84	-2.5466013
213	0x3ffa9682	1.9577181
214	0xc0df2b8f	-6.974067
215	0x3fdf24af	1.743307
216	0xbf182b19	-0.5944076
217	0xc03423ba	-2.8146806
218	0xbf47c8aa	-0.78040564
219	0xc0879fa9	-4.23824
220	0x4081a235	4.0510507
221	0xbfec345f	-1.8453482
222	0xbdef478c	-0.11683568
223	0x3fb833a0	1.4390755
224	0x3f1520dc	0.58253264
225	0x3f30512a	0.68873847
226	0xc0722df0	-3.7840538
227	0xc089273a	-4.2860384
228	0xbec1bff1	-0.37841752
229	0xbf46e44a	-0.7769209
230	0x3feacce7	1.8343781
231	0xc07287b7	-3.7895334
232	0xbeb8a466	-0.36062926
233	0x410bd139	8.73858
234	0x40026ac8	2.0377674
235	0xbfb2bae2	-1.3963282
236	0x3f398242	0.7246438
237	0xc119b343	-9.606265
238	0xbf8e8436	-1.1134098
239	0x3f9bc1fe	1.2168577
240	0xbff9ed51	-1.9525548
241	0xbf63f270	-0.89041805
242	0xbf8e1739	-1.1100837
243	0x3f2c8051	0.67383295
244	0xbffdfc2c	-1.9842582
245	0x4084bdf7	4.148189
246	0xc036962c	-2.8529158
247	0x40166ab4	2.3502626
248	0x3f174b3a	0.5909916
249	0xc0848ff5	-4.142573
250	0xc0522148	-3.2832813
251	0x3fc55239	1.5415717
252	0xc02cf939	-2.7027113
253	0x401fd39e	2.497291
254	0xc086018e	-4.18769
255	0x3f75d24c	0.9602401
