original_motion_optim_inversion_old/6000_inverse_optim.pth (torch, 29907 bytes, 1 tensors)

W f4 [1, 14, 512]
-6.6611533 0.92569524 8.433393 0.6734968 -3.0781403 -2.614991 1.8134859 1.9647189
-2.1734314 2.1773286 1.4107558 -0.5304186 -0.28779227 1.4660088 3.2351232 -2.3934834
-2.5745993 -0.6938445 -1.8359516 -0.7208639 -2.195414 -0.20066825 1.4155368 2.1785235
-2.3254986 0.8612374 -1.0082643 6.6992135 -1.184292 -0.7649852 3.4805734 1.0940139
-4.317222 0.72187644 -1.5171807 0.8909957 -5.087786 5.2035384 0.92460465 2.6729467
0.24667424 0.33225244 -0.8721855 0.80995816 -1.0164706 -0.33721808 -2.0227032 -4.4763756
-1.28327 0.13709582 -2.2391276 -5.838789 -0.19347829 -4.9532523 -0.5455814 -2.2076578
5.1003523 -4.6773653 0.25962076 0.62463117 -0.11278212 -7.8001 -0.4866198 -4.2625947
-2.928454 2.644384 -0.96855986 -1.0155368 -0.42947394 -1.0017424 2.9889345 -0.7772348
0.18985456 0.4026145 1.1451414 0.0510351 0.6703781 2.6935737 2.7766194 -1.2163013
-2.7651677 -2.6809042 -1.0958052 -0.8642667 2.5761414 0.33652908 -1.712872 -3.5398948
4.792571 2.661534 -1.786913 4.295149 2.166695 -5.9228477 -0.900802 1.8125861
1.8993372 0.82713544 1.7032769 6.3651958 2.0180135 1.9713224 5.5669646 -2.5164123
-5.72163 -2.1188006 0.6735122 -2.0108507 -6.117712 2.1661234 -1.5980518 1.4567233
-0.017526567 -0.6420499 0.1529757 0.5282752 -3.6863136 2.6757667 2.0381632 -0.24714543
4.736909 3.876331 3.428067 4.9521723 2.8262894 4.966795 -3.420902 -3.4532232
-4.652718 1.2053273 -1.8050363 0.36813512 5.298899 2.5025508 2.875347 -0.024549725
-5.20802 -1.3184303 -1.6932563 0.040352315 4.6233125 1.2521685 0.95488286 1.0868747
0.45720112 0.6378407 -0.7711088 0.3752695 -1.1957817 -6.163625 6.5667605 -3.1472392
0.28353012 7.266158 2.1787775 -0.9027471 -1.1301531 0.2883631 -1.7950995 -0.4136716
-4.4239297 -1.548554 0.23477086 4.5890193 -2.7508712 2.5878847 0.4096107 -3.4395962
-0.8955699 -0.039924826 -1.439234 2.563294 -1.5891749 -1.1545918 4.0358925 1.8863286
0.6218409 2.338796 -0.08174507 2.3768508 -0.29230782 2.58947 -4.0278835 0.2965907
-0.2535205 0.94724774 5.7479277 -2.4786057 -4.8847666 -0.839603 3.3190339 -0.22547388
1.2961558 -0.080714695 3.8370285 4.15479 -1.2608553 0.7526232 -2.9283016 0.47246537
-6.1261168 0.71130073 -2.8505137 -2.3322601 -2.3250313 -7.997569 5.1911187 -6.4143586
0.5641278 0.7114935 -2.5096269 2.8469286 -2.4078932 1.8797317 -7.1785088 1.6808827
-0.83843744 -2.6017985 -1.0482063 -4.376303 4.2235656 -1.8569542 -0.46979606 1.3242325
0.6824063 0.88309866 -3.848214 -4.299986 -0.2931222 -0.9677825 1.9754137 -3.5856738
-0.28077018 9.464147 2.3266263 -1.2179437 0.56922454 -9.906232 -1.1667147 1.3829895
-2.106247 -0.7482409 -1.0632677 0.45922658 -2.059438 4.0414023 -2.9630291 2.620059
0.7566664 -4.240472 -3.6724527 1.5179868 -2.8344162 2.7061431 -4.128968 1.1111138
00000000: 2b28 d5c0 5dfa 6c3f 2def 0641 496a 2c3f
00000010: 4000 45c0 035c 27c0 4e20 e83f e97b fb3f
00000020: 8019 0bc0 5a59 0b40 a593 b43f 83c9 07bf
00000030: 8259 93be 2da6 bb3f 420c 4f40 d52e 19c0
00000040: 3cc6 24c0 cb9f 31bf 7600 ebbf 898a 38bf
00000050: aa81 0cc0 fa7b 4dbe 4f30 b53f ee6c 0b40
00000060: f8d4 14c0 0e7a 5c3f ce0e 81bf f55f d640
00000070: e196 97bf 12d6 43bf b7c1 5e40 a608 8c3f
00000080: af26 8ac0 e5cc 383f fa32 c2bf 4b18 643f
00000090: 25cf a2c0 6383 a640 e4b2 6c3f 8f11 2b40
000000a0: 2c98 7c3e fe1c aa3e 8d47 5fbf 6b59 4f3f
000000b0: b51b 82bf d9a7 acbe f873 01c0 783e 8fc0
000000c0: 3142 a4bf d962 0c3e de4d 0fc0 5cd7 bac0
000000d0: 2c1f 46be 0b81 9ec0 39ab 0bbf 444a 0dc0
000000e0: 1636 a340 faac 95c0 03ed 843e d4e7 1f3f
000000f0: 50fa e6bd 6b9a f9c0 3b26 f9be 2d67 88c0
00000100: ca6b 3bc0 963d 2940 8af3 77bf 1cfd 81bf
00000110: 02e4 dbbe 1839 80bf b44a 3f40 dcf8 46bf
00000120: 3c69 423e 7d23 ce3e fe93 923f 2e0a 513d
00000130: e69d 2b3f 8363 2c40 22b4 3140 c3af 9bbf
00000140: 82f8 30c0 ef93 2bc0 5843 8cbf 9540 5dbf
00000150: 80df 2440 8a4d ac3e 643f dbbf a38d 62c0
00000160: be5c 9940 9356 2a40 91b9 e4bf dc71 8940
00000170: 22ab 0a40 f887 bdc0 f69a 66bf d202 e83f
00000180: 7b1d f33f 26bf 533f fa04 da3f afaf cb40
00000190: 2227 0140 4b54 fc3f 9324 b240 e60c 21c0
000001a0: 9817 b7c0 6e9a 07c0 4c6b 2c3f c7b1 00c0
000001b0: 4cc4 c3c0 c4a1 0a40 f68c ccbf e975 ba3f
000001c0: e093 8fbc 625d 24bf a9a5 1c3e 0b3d 073f
000001d0: 90ec 6bc0 c33f 2b40 4471 0240 b113 7dbe
000001e0: c294 9740 cf15 7840 7365 5b40 3278 9e40
000001f0: ede1 3440 fcef 9e40 0ff0 5ac0 9c01 5dc0
00000200: 11e3 94c0 2a48 9a3f 6e0b e7bf 357c bc3e
00000210: 9590 a940 cb29 2040 af05 3840 811c c9bc
00000220: 1aa8 a6c0 53c2 a8bf 9fbc d8bf 7848 253d
00000230: 2df2 9340 0f47 a03f 3473 743f b61e 8b3f
00000240: 4416 ea3e 8749 233f 6367 45bf 5323 c03e
00000250: 600f 99bf 6a3c c5c0 e722 d240 5e6c 49c0
00000260: dc2a 913e 5e84 e840 1771 0b40 6f1a 67bf
00000270: dba8 90bf 54a4 933e d2c5 e5bf c4cc d3be
00000280: d590 8dc0 0437 c6bf c667 703e 3fd9 9240
00000290: 460e 30c0 e79f 2540 7eb8 d13e 5822 5cc0
000002a0: 1244 65bf 3788 23bd d238 b8bf 020d 2440
000002b0: 156a cbbf aac9 93bf 0826 8140 3773 f13f
000002c0: f730 1f3f d5ae 1540 f669 a7bd 531e 1840
000002d0: 5fa9 95be e0b9 2540 6ce4 80c0 bcda 973e
000002e0: 70cd 81be d47e 723f 06ef b740 7aa1 1ec0
000002f0: 0250 9cc0 39f0 56bf 0d6b 5440 a0e2 66be
00000300: 6fe8 a53f bf4d a5bd e091 7540 0af4 8440
00000310: b563 a1bf eaab 403f 4b69 3bc0 fbe6 f13e
00000320: 2609 c4c0 ce17 363f d16e 36c0 c043 15c0
00000330: 50cd 14c0 16ec ffc0 a51d a640 6d42 cdc0
00000340: ae6a 103f 7024 363f ba9d 20c0 1434 3640
00000350: ec1a 1ac0 0c9b f03f 58b6 e5c0 2a27 d73f
00000360: d6a3 56bf de83 26c0 a02b 86bf ad0a 8cc0
00000370: 7327 8740 adb0 edbf 1c89 f0be 7380 a93f
00000380: 2eb2 2e3f c112 623f 2349 76c0 7c99 89c0
00000390: 1d14 96be 98c0 77bf 5bda fc3f ae7b 65c0
000003a0: 1cc1 8fbe 256d 1741 72e7 1440 94e5 9bbf
000003b0: b3b8 113f ed7f 1ec1 e856 95bf cd05 b13f
000003c0: c0cc 06c0 b78c 3fbf 2819 88bf bf1f eb3e
000003d0: d5cd 03c0 2b53 8140 45a2 3dc0 0caf 2740
000003e0: e4b4 413f f2b1 87c0 7709 6bc0 644d c23f
000003f0: 1367 35c0 7331 2d40 8120 84c0 fa38 8e3f
