original_motion_optim_inversion_old/6500_inverse_optim.pth (torch, 29907 bytes, 1 tensors)

W f4 [1, 14, 512]
00000000: b964 dbc0 73d4 723f 93c6 0741 8d6b 893f
00000010: 2c1d 57c0 8641 16c0 aa74 c83f ab23 e43f
00000020: 611e 04c0 126e 1440 a59e a43f 1c3e 18bf
00000030: 056b 83be 1447 bf3f 5a30 4440 2953 24c0
00000040: 72c3 26c0 57fe 80bf 1a1a 00c0 78d3 4cbf
00000050: 1fba 11c0 61b7 06bf 99ac ca3f 2137 0c40
00000060: 4c17 1dc0 b0f3 373f f48f 44bf b4ec d640
00000070: 3c27 a8bf cb47 1abf 8433 6640 d40d a53f
00000080: 64b7 90c0 5684 3d3f f283 bbbf 990f 323f
00000090: a12c acc0 d595 a640 9e4d 3d3f 63ab 0e40
000000a0: 4d54 273e 746f a03e 05f8 abbf bcc0 8b3f
000000b0: 8bf0 6fbf 78de 56be 0a00 04c0 5063 8bc0
000000c0: d9ec a3bf 08d0 123e 9e84 14c0 0bc9 b6c0
000000d0: 7237 04bf 4004 9fc0 4fc0 01bf 2b5f 07c0
000000e0: 6ced a240 bbc8 adc0 4269 393e eba5 c03e
000000f0: 9f2d aabe a02f 00c1 d266 a6be a5ce 9dc0
00000100: 763b 38c0 9614 2c40 3b15 97bf 2ad8 44bf
00000110: 2ff3 9bbe 1a43 a5bf a498 2d40 4c50 45bf
00000120: 1ffd 913e 4b68 6d3e 4fc7 9e3f 8470 043f
00000130: 926b 043f 9fae 2f40 ffd4 3840 e832 89bf
00000140: b3f7 31c0 4a74 27c0 e254 84bf e2cd 15bf
00000150: 2aff 2a40 fa8d e33e e79b c8bf c9f4 79c0
00000160: 3688 a540 44f6 3c40 8e17 e4bf 27ff 8f40
00000170: 61dc 0e40 1703 c0c0 24f9 6cbf 65e4 0740
00000180: 8f0e fd3f 38f5 8d3f 00bc d63f 64fb d140
00000190: ac74 0740 0485 e93f 9cca b640 4c99 26c0
000001a0: 7b8f bdc0 2583 0ac0 4f09 243f 6398 e6bf
000001b0: aaa3 d2c0 cf48 f73f 65c1 c6bf f8de df3f
000001c0: 0d7c efbb a6c4 27bf 461b 693d ce92 c13e
000001d0: ef4c 7dc0 17ba 3140 00ef 3340 ddb5 8cbe
000001e0: 650b 9540 6adb 7e40 bf2b 6240 112e 9240
000001f0: 5da0 3340 b88f 9e40 8a00 64c0 54a4 64c0
00000200: de41 a6c0 db3d 4b3f 0ff5 b6bf 5bec a13c
00000210: 0335 bf40 8f36 1340 600f 3740 91e2 203e
00000220: ace2 a4c0 ad8d c5bf 4acf c2bf 7b70 f4bd
00000230: 830b 9640 2376 b53f fb4c 8d3f 3ae8 a43f
00000240: 6253 de3e ec7a 5f3f ac1d 3ebf 6401 143e
00000250: 9fb6 72bf 84c2 c0c0 9074 d840 5da2 2ec0
00000260: 2be9 633e 744f f340 bf45 0c40 6ba7 37bf
00000270: 39f2 74bf ccf7 a53e 6c51 edbf 2e02 97be
00000280: f1d8 86c0 0374 b0bf 71f1 933e a400 9840
00000290: cebb 34c0 b855 2540 5d9b 3c3e 7965 61c0
000002a0: c9bf 37bf dfb9 77be 7f0f 98bf 5185 2940
000002b0: 6009 cbbf e053 90bf b271 8d40 b737 f83f
000002c0: f821 533f c6ca 2940 0033 57be a496 0f40
000002d0: c3c2 b2be 763f 2740 5f00 7cc0 7be7 cf3e
000002e0: 55e4 3bbf 6040 a83f cae4 b040 612d 21c0
000002f0: 30c3 aac0 0ca4 64bf 2d24 5640 7e44 84be
00000300: 62e3 cc3f 9db4 32bd 603b 8740 f7d0 8f40
00000310: 70f3 7bbf bbb1 223f 76e1 3cc0 1e36 c13e
00000320: 5940 c1c0 d0f1 253f 558a 4ec0 cd7a 1fc0
00000330: ebb0 14c0 136c 04c1 685c b640 ed51 cdc0
00000340: 3f03 fc3e 4c9e 2a3f 64bb 1fc0 be3c 3f40
00000350: 12e0 1fc0 1234 f03f d560 e7c0 1c94 ac3f
00000360: d206 5cbf dfb5 17c0 fccf 82bf 38e6 87c0
00000370: a5bb 8c40 e936 f2bf 6822 5cbf 6790 a03f
00000380: 2496 3c3f 319d 583f 1a58 73c0 8f08 92c0
00000390: 41f5 abbc 5839 87bf 1800 1140 d1a2 63c0
000003a0: 44fb 09be 6300 1b41 c903 1f40 3589 89bf
000003b0: 6458 303f 0c2d 1fc1 4163 afbf f20c dd3f
000003c0: 461a 10c0 ce06 44bf 34df b7bf de81 d63e
000003d0: 92bb 03c0 ab2a 7940 97f3 35c0 ebad 2f40
000003e0: f822 623f fe0f 8fc0 bcc8 6fc0 3613 cb3f
000003f0: fc23 40c0 f4e0 2d40 3df7 82c0 8329 ab3f
-6.8560452 0.9485542 8.48598 1.0735947 -3.3611555 -2.3477492 1.5660603 1.7823385
-2.0643542 2.3192182 1.2860914 -0.5946977 -0.25667587 1.4943566 3.0654511 -2.5675757
-2.605679 -1.0077618 -2.001593 -0.80010176 -2.276985 -0.52623564 1.5833923 2.1908648
-2.454547 0.7185621 -0.76782155 6.7163944 -1.3136973 -0.602658 3.5968943 1.2894845
-4.5223866 0.74030054 -1.4649642 0.6955505 -5.380448 5.20579 0.7394656 2.2292106
0.16340752 0.31335032 -1.3435065 1.0918193 -0.93726414 -0.20983303 -2.0625024 -4.355873
-1.2806655 0.1433717 -2.3205943 -5.7120414 -0.516471 -4.969269 -0.50684065 -2.1151836
5.091482 -5.430753 0.18106559 0.37626585 -0.3323793 -8.011627 -0.3250032 -4.931475
-2.8786292 2.6887565 -1.1803354 -0.7689234 -0.30458972 -1.2911103 2.7124414 -0.7707565
0.2851343 0.23184316 1.2404574 0.51734185 0.5172664 2.745033 2.8880002 -1.071866
-2.7807434 -2.6164727 -1.0338404 -0.5851728 2.671824 0.44444257 -1.5672578 -3.9055655
5.1728773 2.9525309 -1.7819688 4.4998965 2.2322009 -6.000377 -0.9256766 2.123315
1.9770068 1.109046 1.6776123 6.5619373 2.116496 1.8243718 5.7122326 -2.6031065
-5.9237647 -2.1642544 0.64076704 -1.8015255 -6.5824785 1.9319094 -1.5527769 1.748992
-0.007308489 -0.65534437 0.056910776 0.37807316 -3.9578207 2.776983 2.8114624 -0.274825
4.657641 3.982142 3.53392 4.5681233 2.8066628 4.955044 -3.562533 -3.5725298
-5.1955404 0.7939126 -1.4293536 0.019766023 5.975221 2.300205 2.8603134 0.15711428
-5.15267 -1.5433861 -1.521951 -0.119355164 4.6889052 1.4176677 1.1039118 1.288337
0.4342299 0.8729694 -0.74264026 0.14453655 -0.9480991 -6.0237446 6.764229 -2.7286599
0.22256915 7.603449 2.191757 -0.71739835 -0.956821 0.32415617 -1.8540473 -0.2949385
-4.213982 -1.3785404 0.28895143 4.750078 -2.8239627 2.5833569 0.18418641 -3.5218184
-0.71777016 -0.24191998 -1.1879729 2.648762 -1.5862236 -1.1275597 4.420129 1.9392003
0.8247371 2.6530013 -0.21015549 2.2435694 -0.34914216 2.6132483 -3.9375226 0.40606293
-0.7339528 1.3144646 5.5279284 -2.5183947 -5.3363266 -0.89312816 3.345958 -0.25833505
1.6006892 -0.043629277 4.225998 4.4942584 -0.9841833 0.63552445 -2.951261 0.377366
-6.039105 0.648221 -3.227193 -2.4918702 -2.3232982 -8.276385 5.69878 -6.4162507
0.49221227 0.6664779 -2.4958124 2.9880824 -2.4980512 1.8765891 -7.2305703 1.3482699
-0.85947907 -2.3704755 -1.0219722 -4.246853 4.397906 -1.8923007 -0.8599 1.2544068
0.73666596 0.84614855 -3.8022523 -4.5635448 -0.02099097 -1.0564375 2.2656307 -3.5568125
-0.13474756 9.687594 2.484606 -1.0744997 0.68884873 -9.948498 -1.3702165 1.7269576
-2.2516036 -0.76572883 -1.4364991 0.41895956 -2.0583234 3.8932292 -2.8429925 2.74499
0.8833461 -4.470702 -3.7466269 1.5865238 -3.0021963 2.716855 -4.0926805 1.3372043
