original_motion_optim_inversion_old/7000_inverse_optim.pth (torch, 29907 bytes, 1 tensors)

W f4 [1, 14, 512]
000000 e5 fc df c0 5b 1a 6e 3f 09 ac 06 41 90 4a a5 3f
       -6.999621 0.93008965 8.417001 1.291338
000010 b8 e4 63 c0 25 22 0f c0 60 eb be 3f a9 86 db 3f
       -3.560835 -2.236459 1.4915581 1.715047
000020 fc 74 f3 bf 13 c1 19 40 fb 75 86 3f b0 7b 36 bf
       -1.9020076 2.4024093 1.0504755 -0.7128248
000030 d4 b1 8c be 31 00 b7 3f d0 c9 40 40 ea f4 30 c0
       -0.27479422 1.4296933 3.0123177 -2.7649484
000040 7e 4d 22 c0 be 42 ba bf ad 25 07 c0 1c 71 81 bf
       -2.5359797 -1.4551618 -2.1116745 -1.0112643
000050 7a da 0c c0 7e ec 3f bf 4d 71 e5 3f 35 b6 14 40
       -2.2008348 -0.74970233 1.7925202 2.323621
000060 5a e1 08 c0 cf b0 53 3f 71 14 1d bf 83 7d dc 40
       -2.1387544 0.82691664 -0.61359316 6.8903213
000070 16 17 ad bf 2d 71 3e bf 2e b6 6f 40 64 31 b6 3f
       -1.352267 -0.7439144 3.7454944 1.4233823
000080 a0 8f 9c c0 9b ad 63 3f 12 2a d2 bf 75 f8 4e 3f
       -4.8925323 0.88936776 -1.6419089 0.80847865
000090 cf 10 b2 c0 d9 e4 ad 40 ce 3e f1 3e 80 12 01 40
       -5.564552 5.4341855 0.4711823 2.0167542
0000a0 55 b9 36 3d 1e 19 8e 3e 6f b2 f5 bf 2f 0b aa 3f
       0.04461034 0.27753538 -1.9195079 1.3284663
0000b0 3b e2 6c bf 56 1d 0a bc fe c4 10 c0 db 8a 8b c0
       -0.925327 -0.008429846 -2.2620234 -4.3607
0000c0 61 ed a8 bf 81 c3 42 3e 54 ff 18 c0 91 4b b5 c0
       -1.3197442 0.19019891 -2.390584 -5.6654744
0000d0 50 9f 39 bf b7 28 a6 c0 66 11 ca be 76 a9 02 c0
       -0.72508717 -5.19247 -0.394664 -2.041593
0000e0 8c ab 9f 40 4d fb c4 c0 3e 36 09 3c 1c bb 58 bd
       4.989691 -6.1556764 0.008374749 -0.052912816
0000f0 9d f9 1c bf 33 0b 01 c1 a3 d2 81 be 92 c2 a2 c0
       -0.6131838 -8.065234 -0.25356016 -5.0862513
000100 c8 53 34 c0 a8 a1 26 40 88 74 a9 bf 0f a5 1a bf
       -2.8176136 2.6036167 -1.3238688 -0.6040811
000110 aa da ae be 75 3d b2 bf 28 9a 23 40 52 86 4d bf
       -0.34151202 -1.3925005 2.556284 -0.8028308
000120 2d ff a1 3e 19 f8 d5 3c ac 1c a8 3f 28 da 59 3f
       0.31639996 0.026119279 1.313375 0.85098505
000130 b4 fa 88 3e 03 c3 35 40 aa 7d 36 40 4a 23 77 bf
       0.2675377 2.8400276 2.85142 -0.9653822
000140 a5 3e 2e c0 0c 3f 32 c0 da ea 80 bf e7 31 15 bf
       -2.7225735 -2.785098 -1.0071671 -0.5827927
000150 67 05 24 40 79 6b 00 3f e4 77 b1 bf 3b 24 89 c0
       2.5628297 0.5016399 -1.3864713 -4.2856727
000160 3b e7 a4 40 a7 c6 46 40 6b d2 e5 bf b4 e7 99 40
       5.1532264 3.1058748 -1.795484 4.809534
000170 c7 65 22 40 0a 64 c1 c0 af dd 7c bf 2f 0b 18 40
       2.537462 -6.043462 -0.9877576 2.3756826
000180 a5 1c 07 40 8b a5 ad 3f 62 32 e3 3f 6b e5 d3 40
       2.1111233 1.3566145 1.7749751 6.621755
000190 05 6a 04 40 2a 22 d8 3f 0a 01 bd 40 26 ec 35 c0
       2.068971 1.6885426 5.906377 -2.8425384
0001a0 f7 0f c0 c0 7e 21 0f c0 54 b3 18 3f 38 cf bd bf
       -6.001949 -2.2364192 0.59648633 -1.4828863
0001b0 0d 36 f2 c0 8e d5 e0 3f 02 df f5 bf c0 bc 01 40
       -7.569098 1.7565172 -1.9208682 2.0271454
0001c0 f8 a1 71 3c e4 28 47 bf a0 99 d1 3d 3b 35 72 3e
       0.014748089 -0.7779677 0.1023438 0.23653118
0001d0 8b e0 85 c0 a5 71 39 40 6a 90 4c 40 82 7c cc be
       -4.18366 2.8975613 3.1963143 -0.39938742
0001e0 9f 79 95 40 4f bb 87 40 26 2d 63 40 fc 04 87 40
       4.6710963 4.241615 3.5496306 4.2193584
0001f0 61 7a 45 40 72 7a 9e 40 9d 85 6b c0 a8 89 66 c0
       3.0855944 4.952447 -3.68003 -3.6021519
000200 24 a1 b1 c0 c0 d3 f9 3e 4c d9 8e bf f7 d3 8b be
       -5.5509205 0.48794365 -1.1160064 -0.27310154
000210 9f 61 c7 40 3a f9 00 40 e4 74 37 40 5a 51 1f 3e
       6.2306666 2.0152116 2.8665094 0.15558377
000220 84 62 aa c0 2b f1 d2 bf 1d 68 c7 bf 46 62 78 be
       -5.324526 -1.6479849 -1.5578648 -0.24256238
000230 f4 c6 96 40 9b 63 d6 3f cc 33 a0 3f 5b e1 96 3f
       4.7117863 1.6749147 1.2515807 1.1787523
000240 28 ee ca 3e b2 11 74 3f 44 89 35 bf 90 3d df 3b
       0.39634824 0.953395 -0.70912576 0.0068127587
000250 7e e3 5c bf 3d 11 bb c0 61 6e d6 40 5e 22 1f c0
       -0.86284626 -5.8458543 6.700974 -2.4864726
000260 46 df 41 3d 5a 15 05 41 1d 4c 03 40 a8 e1 33 bf
       0.04733207 8.317713 2.0515206 -0.702662
000270 35 15 46 bf 8a cf bd 3e 12 98 db bf 41 79 66 bd
       -0.7737611 0.37072402 -1.7155783 -0.05626798
000280 da e1 80 c0 0e e9 a9 bf c5 00 53 3e b8 47 93 40
       -4.02757 -1.3274248 0.20605762 4.6025047
000290 0b 2b 36 c0 0f 02 25 40 9b 61 c6 3d 24 78 5c c0
       -2.8463771 2.5782506 0.096865855 -3.4448328
0002a0 74 9d fa be 08 1a 84 be 63 3c 8f bf 86 58 2b 40
       -0.48948252 -0.2580111 -1.1190304 2.677278
0002b0 c8 03 cc bf 6e af 86 bf 72 20 91 40 21 49 f5 3f
       -1.5938654 -1.0522287 4.5352106 1.9162942
0002c0 67 e5 82 3f 25 ce 4a 40 86 60 a5 be eb 00 11 40
       1.0226258 3.168832 -0.32300204 2.265681
0002d0 e9 08 fe bd 22 d6 29 40 8e e2 75 c0 7c 7f cd 3e
       -0.12404043 2.6536946 -3.8419528 0.40136325
0002e0 ca 8e 7b bf 5c 62 bb 3f b8 99 b2 40 26 db 2c c0
       -0.98264754 1.4639392 5.5812645 -2.7008758
0002f0 2b 33 ab c0 01 c5 94 bf 95 b5 55 40 8f 35 db be
       -5.349996 -1.1622621 3.339208 -0.428143
000300 f6 60 d7 3f 25 49 0c be b0 ba 8f 40 16 ec 99 40
       1.6826465 -0.13699777 4.491539 4.810069
000310 5a 38 4a bf bf 30 d5 3e 5c 7d 3f c0 f4 dc d8 3e
       -0.78992236 0.41638753 -2.9920263 0.42356074
000320 45 5f c2 c0 f2 49 21 3f 14 0d 5f c0 93 e7 24 c0
       -6.0741296 0.63003457 -3.4851732 -2.5766342
000330 64 97 11 c0 f7 be 08 c1 cd 3c c5 40 e4 b2 cf c0
       -2.2748652 -8.546622 6.163672 -6.490587
000340 f0 48 fb 3e 26 cc 18 3f 17 95 21 c0 ff 4e 41 40
       0.49079084 0.59686506 -2.5247247 3.0204465
000350 a9 6f 28 c0 43 16 f7 3f 9e 69 e9 c0 a3 90 80 3f
       -2.6318152 1.9303669 -7.2941427 1.004414
000360 6b d6 76 bf 9a 51 1c c0 70 fc 81 bf 9b 55 85 c0
       -0.96420926 -2.4424806 -1.0155163 -4.1667
000370 bf 82 8e 40 c2 64 f0 bf e3 1a 87 bf bd ad 9c 3f
       4.45346 -1.8780749 -1.055508 1.2240521
000380 95 8e 5f 3f 49 f0 3f 3f aa f0 71 c0 00 a4 9a c0
       0.8732694 0.7497602 -3.780314 -4.8325195
000390 31 72 0f 3c ec 46 a5 bf d2 1b 11 40 f0 d1 66 c0
       0.008755253 -1.2912269 2.267323 -3.6065636
0003a0 91 21 b7 bd a3 cc 1a 41 18 91 3c 40 c9 95 69 bf
       -0.08941949 9.67496 2.9463558 -0.9124418
0003b0 61 a0 14 3f 43 ac 23 c1 2a 16 c2 bf d2 85 ed 3f
       0.5805722 -10.229556 -1.5163014 1.8556464
0003c0 b3 bd 16 c0 58 38 65 bf 3f 13 ca bf df 19 86 3e
       -2.3553283 -0.895391 -1.5787123 0.26191613
0003d0 76 96 07 c0 6e cc 64 40 11 ed 39 c0 4f 56 30 40
       -2.1185584 3.5749774 -2.9050944 2.7552679
0003e0 89 46 80 3f 78 a7 8d c0 7f 9c 70 c0 0a f7 d7 3f
       1.0021526 -4.426693 -3.7595518 1.6872265
0003f0 75 7c 51 c0 8c 53 4e 40 ea 23 80 c0 12 b3 d2 3f
       -3.2732213 3.2238493 -4.004384 1.6460898
