original_motion_optim_inversion_old/7500_inverse_optim.pth (torch, 29907 bytes, 1 tensors)

W f4 [1, 14, 512]
00000000: 8f69 ecc0 6799 603f b3d8 0641 9a9d b03f
00000010: 3b7f 77c0 a9a0 02c0 1704 a33f 4152 0040
00000020: 3540 efbf 2116 1840 e38c 953f 127d 68bf
00000030: fefa b8be 15b0 b33f aede 2b40 372b 53c0
00000040: b536 0ec0 b588 febf 8699 07c0 43d0 48bf
00000050: f59c f0bf 716c 67bf ea56 0240 ccfe 1d40
00000060: 4c6f e3bf b099 923f 7f00 e5be 2083 e240
00000070: 69e5 aebf 96fb 43bf 8a15 7c40 9483 dc3f
00000080: 8471 b4c0 01d2 7b3f d59b edbf b4d0 613f
00000090: add6 bcc0 9f9c ad40 4b94 0d3f 7fef ac3f
000000a0: 24b3 373e a0d9 8e3e 37d8 0dc0 14fc a03f
000000b0: e651 42bf 17a2 c53d 8026 10c0 303d 90c0
000000c0: 9fb2 afbf 3b76 2b3e 49d0 1ac0 5698 bbc0
000000d0: 4e8f 7ebf 1c5b a6c0 c671 92be 548e 0dc0
000000e0: c449 a340 898e e4c0 9e05 36be 620b c9be
000000f0: 657f 57bf b112 fac0 0007 58be 29ca 9ec0
00000100: 25b7 29c0 d7ec 2640 ef82 b9bf e4ed e5be
00000110: 08c3 fdbe 687a c0bf 01c0 1f40 6bf6 6bbf
00000120: 7260 383e a448 29be 6787 cb3f 4b63 3a3f
00000130: b089 943d 5ab6 3140 73d6 4240 2bfb 68bf
00000140: 072e 44c0 40a4 35c0 b82d a0bf 5b9d e8be
00000150: f86d 1840 a7f4 013f 2147 6bbf 2bc6 9ec0
00000160: d34f ad40 7f5a 4940 919c debf ee9a a340
00000170: 54fd 3340 06e4 bdc0 dc6c 9cbf 555e 2140
00000180: 7540 1540 b8f1 9e3f d457 e13f 50a8 d440
00000190: 9fe4 1040 3abb c03f b4ab c540 450d 25c0
000001a0: 7ba4 cdc0 d4a7 00c0 377c 053f affc 90bf
000001b0: 471e 06c1 89ad a53f fa63 17c0 fe73 1c40
000001c0: 451d 48be 1cdc 4cbf d521 d43c 6186 b53e
000001d0: b1d5 88c0 1a0f 4f40 cde2 7240 adbf e5be
000001e0: e2fa 9640 fd47 9140 a5c9 6140 52d9 8d40
000001f0: 67a6 6040 622b 9c40 9181 7dc0 8462 6cc0
00000200: a541 b8c0 b4e1 8e3e ca4a 97bf ad9d 26bf
00000210: 3738 d940 7d72 e23f e9f8 3b40 2279 d83e
00000220: 6f73 b0c0 df21 aabf f6ad bebf 06f8 dabe
00000230: 81cb 9a40 bd3a 0340 9d5d bf3f 907c d93f
00000240: bfda 7e3e 30d9 643f c79d 20bf f36c fe3d
00000250: 62c9 15bf 7e74 bac0 db39 c840 30b1 20c0
00000260: 36aa d9be c14a 0c41 5413 0240 1cf0 09bf
00000270: f11b 32bf 32cd ac3e bb33 c9bf dab6 34bc
00000280: 689f 76c0 3d2f 94bf a268 fd3d dbc5 9240
00000290: 4722 3cc0 6df0 2540 833c 81be d536 4fc0
000002a0: 3547 b6be fdb7 f7bd bbbc 89bf f820 2a40
000002b0: fc14 ddbf 8220 91bf 3435 8d40 36f0 fc3f
000002c0: f757 9d3f aad9 6a40 9907 f6be 1f74 1840
000002d0: 4792 a3bd 9eb0 2c40 0983 68c0 9479 bd3e
000002e0: b3ae 9cbf fa5b c73f f3e2 b840 6617 25c0
000002f0: f3ff b0c0 044d adbf 2b79 6940 e489 0fbf
00000300: ebff a83f e08a 6339 9eb7 9340 43af ae40
00000310: 03c9 1cbf 1f18 983d d7da 47c0 4164 fe3d
00000320: d510 c9c0 d8c0 d73e b88b 85c0 c6ce 29c0
00000330: 62ac 0dc0 7418 0ac1 48fb cb40 2abd d2c0
00000340: 09ce 2e3f 4a01 213f 535f 28c0 1b8b 4540
00000350: abc2 37c0 66db e03f 1059 ebc0 be4b 063f
00000360: af7e 29bf 9596 20c0 fb4f 77bf 89c0 89c0
00000370: 1b21 9540 5db7 00c0 181b bdbf 0ac5 923f
00000380: 7ab3 6b3f 29c2 323f 46ff 7cc0 ec36 a1c0
00000390: cff0 a53d e1de b5bf 3089 0c40 74c5 78c0
000003a0: 523d f3bd ed49 1f41 9413 5340 d3be 57bf
000003b0: af5c dc3e 77da 28c1 0b4f ddbf 58b9 ff3f
000003c0: 35f1 1dc0 a14d 76bf 3cb8 d5bf 8b06 623d
000003d0: 835b 0ac0 3eb2 6040 170f 53c0 1ac8 3240
000003e0: 486d 893f 6711 8bc0 7e00 7fc0 369b ee3f
000003f0: ec46 5cc0 7f3b 6840 f413 76c0 668d e53f
-7.3878856 0.87734073 8.427905 1.3798096 -3.8671405 -2.041056 1.2735623 2.0050204
-1.869147 2.3763506 1.168362 -0.9081584 -0.36128992 1.4038111 2.6854663 -3.2995126
-2.222089 -1.988547 -2.1187453 -0.7844278 -1.87979 -0.90399843 2.0365548 2.4686766
-1.776834 1.1453152 -0.4472694 7.0785065 -1.366376 -0.76555765 3.9388146 1.7227654
-5.638857 0.98367316 -1.8563181 0.8820908 -5.9012055 5.425369 0.553044 1.3510588
0.1793943 0.2790041 -2.2163217 1.2576928 -0.7590622 0.09650057 -2.2523499 -4.507469
-1.3726386 0.1674432 -2.4189627 -5.8623457 -0.99437416 -5.1986217 -0.28602427 -2.211812
5.1027546 -7.1423993 -0.1777558 -0.39266497 -0.84178764 -7.8147817 -0.2109642 -4.9621778
-2.6518033 2.6082056 -1.4493083 -0.4490806 -0.4956286 -1.5037355 2.496094 -0.9217288
0.18005541 -0.16531616 1.5900697 0.7280776 0.07252824 2.7767549 3.044339 -0.9100825
-3.0653093 -2.83815 -1.2513952 -0.45432553 2.381712 0.50763935 -0.9190541 -4.9616904
5.415994 3.1461484 -1.739153 5.1126623 2.812337 -5.934085 -1.2220721 2.5213826
2.3320591 1.2417517 1.7604928 6.645546 2.263954 1.5057137 6.17721 -2.578935
-6.426328 -2.0102434 0.5214266 -1.1327113 -8.382392 1.2943584 -2.365477 2.4445796
-0.19542415 -0.8002336 0.025895039 0.35454085 -4.2760854 3.2352967 3.7950928 -0.448728
4.7181253 4.5400376 3.5279324 4.4327784 3.5101564 4.8802958 -3.961033 -3.693513
-5.7580132 0.27906573 -1.1819699 -0.65084344 6.788112 1.7691189 2.9370673 0.42279917
-5.514091 -1.3291587 -1.4896839 -0.42767352 4.837342 2.05046 1.4950444 1.6991138
0.24888133 0.893939 -0.6274075 0.12423124 -0.5851041 -5.82672 6.2570624 -2.5108147
-0.42512673 8.76825 2.0324297 -0.53882 -0.69573885 0.33750302 -1.5718912 -0.011029923
-3.8534794 -1.1576916 0.12373473 4.5866523 -2.9395921 2.5927994 -0.2524148 -3.2377217
-0.35601202 -0.1209564 -1.0760721 2.6582623 -1.7272029 -1.1338046 4.4127445 1.9760807
1.229247 3.6695352 -0.48052672 2.3820875 -0.079868846 2.6982799 -3.6329978 0.3700682
-1.2240814 1.5574944 5.777704 -2.5795531 -5.531244 -1.3539128 3.6480205 -0.5606978
1.32031 0.00021700142 4.616164 5.4588943 -0.6124422 0.07426476 -3.122732 0.12421466
-6.2833047 0.42139316 -4.1733055 -2.6532454 -2.2136464 -8.63097 6.374424 -6.5855913
0.68283135 0.6289259 -2.6308181 3.0866153 -2.8712566 1.7566955 -7.354622 0.52459323
-0.6620893 -2.5091908 -0.96606416 -4.304753 4.660291 -2.0111916 -1.4773893 1.1466382
0.92070735 0.69827515 -3.9530807 -5.0379543 0.08102571 -1.4208642 2.1958733 -3.8870516
-0.1187693 9.955548 3.29807 -0.8427555 0.43039462 -10.553336 -1.7289747 1.9978437
-2.467847 -0.962122 -1.6696849 0.05518202 -2.1618354 3.510879 -3.297796 2.7934632
1.0736475 -4.3458743 -3.984405 1.8641117 -3.4418287 3.6286314 -3.8449678 1.7933776
