original_motion_optim_inversion_old/8000_inverse_optim.pth (torch, 29907 bytes, 1 tensors)

W f4 [1, 14, 512]
0	0xc0edce00	-7.4313965
1	0x3f60e364	0.8784697
2	0x41022033	8.132861
3	0x3fbf2a0f	1.493471
4	0xc080772e	-4.0145483
5	0xbff863c2	-1.9405444
6	0x3f99f815	1.2028834
7	0x40042c5e	2.065208
8	0xbff47e86	-1.9101112
9	0x401a7927	2.4136446
10	0x3f8de53b	1.108558
11	0xbf84f0a2	-1.0385935
12	0xbec40425	-0.38284412
13	0x3fb8dfd0	1.4443302
14	0x402e2dc2	2.7215428
15	0xc06baf70	-3.6825829
16	0xc004b7fa	-2.073729
17	0xc00c4e13	-2.1922653
18	0xc00a4a77	-2.160795
19	0xbf30eb57	-0.691091
20	0xbfe32146	-1.7744529
21	0xbf8579bb	-1.0427774
22	0x40118910	2.2739906
23	0x402dbed4	2.7147722
24	0xbfeb653a	-1.8390267
25	0x3f897d5b	1.074138
26	0xbef3db81	-0.47628406
27	0x40e88960	7.2667694
28	0xbfaf9aea	-1.3719151
29	0xbf4157b7	-0.7552447
30	0x4083f4ae	4.123618
31	0x3fdbd37e	1.7173917
32	0xc0c8d143	-6.2755446
33	0x3f7d46e6	0.9893631
34	0xbffbfe32	-1.9686949
35	0x3fa0e768	1.257062
36	0xc0c0d377	-6.0258136
37	0x40b19b23	5.5501876
38	0x3e87d5eb	0.26530394
39	0x3f57ef36	0.8434938
40	0x3e7b0e8c	0.24517268
41	0x3e8525a7	0.2600529
42	0xc019f7f6	-2.4057593
43	0x3f9dcc30	1.2327938
44	0xbf4e65d5	-0.80624133
45	0x3dd891c8	0.105746806
46	0xc01a27d8	-2.4086819
47	0xc096719d	-4.701369
48	0xbfa9c412	-1.3262961
49	0xbda37209	-0.07980735
50	0xc01fee40	-2.4989166
51	0xc0ba63fb	-5.8247046
52	0xbf74cb2b	-0.9562251
53	0xc0a9a9f5	-5.3019967
54	0xbe86c783	-0.2632409
55	0xc01ebb1b	-2.48017
56	0x40978f0f	4.736213
57	0xc10185ec	-8.095196
58	0xbe0fa9db	-0.14029638
59	0xbee49141	-0.4464207
60	0xbfad6963	-1.3547786
61	0xc0e9704c	-7.294958
62	0xbd942b78	-0.072348535
63	0xc0a33ff1	-5.1015553
64	0xc020d12b	-2.5127666
65	0x402febfd	2.7487786
66	0xbf8ebf57	-1.1152142
67	0xbf15ad34	-0.5846741
68	0xbf13f774	-0.5779946
69	0xbfe06093	-1.7529472
70	0x4039b60b	2.901736
71	0xbf7ad733	-0.9798462
72	0x3e4bf5bd	0.1991796
73	0xbe19ad17	-0.15007435
74	0x3fe318e9	1.7741977
75	0x3f4074f6	0.7517847
76	0x3e6aad6b	0.22917716
77	0x4036c01e	2.855476
78	0x40480269	3.125147
79	0xbf61993c	-0.8812444
80	0xc0571d71	-3.361172
81	0xc031dd66	-2.779138
82	0xbf9b690b	-1.2141432
83	0xbf09f5e8	-0.5389085
84	0x3ff3b0ae	1.9038293
85	0x3f0a1b43	0.5394785
86	0xbf5f0d61	-0.8712979
87	0xc0b122ce	-5.5354986
88	0x40abfc44	5.374544
89	0x40427b2b	3.0387676
90	0xc007d86a	-2.1225839
91	0x40b27f66	5.5780516
92	0x40389ab9	2.8844435
93	0xc0b9a646	-5.801547
94	0xbf8d049f	-1.1017035
95	0x404d7423	3.2102134
96	0x4016f083	2.3584297
97	0x3f9f805e	1.246105
98	0x3fee1020	1.8598671
99	0x40cf0867	6.4697757
100	0x400be0d6	2.185598
101	0x3fadc4e6	1.3575714
102	0x40d83713	6.756723
103	0xc018af18	-2.3856869
104	0xc0ce2403	-6.441896
105	0xbfe4bfc6	-1.7871025
106	0x3eaa665b	0.33281216
107	0xbf364b08	-0.7120824
108	0xc1147ce1	-9.280488
109	0x3f11fbf2	0.57025063
110	0xc02ec6cf	-2.7308843
111	0x402a9c0f	2.665775
112	0xbec082db	-0.37599835
113	0xbf4d48b0	-0.8018904
114	0x3d8f519a	0.06997986
115	0x3e9c3093	0.3050581
116	0xc08e6491	-4.449776
117	0x40633707	3.5502336
118	0x408c3915	4.381968
119	0xbef75340	-0.48305702
120	0x409adfa6	4.839801
121	0x4097057f	4.719421
122	0x40523af7	3.284849
123	0x408a0860	4.3135223
124	0x406699b3	3.603131
125	0x4097aab2	4.739587
126	0xc082aef0	-4.0838547
127	0xc0771534	-3.8606691
128	0xc0bb0095	-5.843821
129	0x3eccaf79	0.39977625
130	0xbfa0be8d	-1.2558151
131	0xbf46346b	-0.77423733
132	0x40e75147	7.2286716
133	0x3fd8d3f0	1.6939678
134	0x403a5b69	2.9118292
135	0x3ecaf9d0	0.39643717
136	0xc0ae53bd	-5.447722
137	0xbf67cf07	-0.90550274
138	0xbfb885fd	-1.441589
139	0xbf49cdab	-0.7882945
140	0x40954e37	4.6657977
141	0x40036156	2.052816
142	0x3f8a802b	1.0820364
143	0x3fdf461b	1.744327
144	0x3eac7c11	0.33688405
145	0x3f8c781b	1.0974153
146	0xbf04b7ff	-0.51843256
147	0x3ea36683	0.31914148
148	0xbf0bae51	-0.5456286
149	0xc0ba55d4	-5.822977
150	0x40cae45c	6.340376
151	0xc0071698	-2.110754
152	0xbf51d5bf	-0.81966776
153	0x411267e4	9.150364
154	0x400a8660	2.1644516
155	0xbdeffc71	-0.11718071
156	0xbf480316	-0.7812971
157	0x3f03737e	0.513481
158	0xbfd7d80a	-1.6862805
159	0x3cfa8f82	0.030586008
160	0xc06bbc5e	-3.683372
161	0xbf938c11	-1.152712
162	0x3ea9b5cd	0.33146515
163	0x409d8f45	4.923739
164	0xc038db42	-2.8883824
165	0x40356079	2.8340132
166	0xbe9a40ae	-0.30127472
167	0xc0471af0	-3.1110191
168	0xbe88bea8	-0.2670796
169	0xbc840d18	-0.016119525
170	0xbf9d8eb5	-1.2309176
171	0x4040d6e2	3.0131154
172	0xbfe27bfa	-1.7694085
173	0xbf7c8480	-0.9863968
174	0x4086a9e4	4.2082386
175	0x4000d0cb	2.0127437
176	0x3fd5bbc5	1.6697928
177	0x407bbdd8	3.9334621
178	0xbf1bc0bd	-0.6084097
179	0x401d77f8	2.4604473
180	0xbd9db037	-0.07699626
181	0x40380d32	2.8758054
182	0xc05d73e1	-3.4601977
183	0x3ea8ae4a	0.32945472
184	0xbfc8d260	-1.5689201
185	0x3fd93bfe	1.6971433
186	0x40bf7158	5.982586
187	0xc034ec29	-2.826914
188	0xc0b50130	-5.656395
189	0xbfd83167	-1.6890076
190	0x4079a8b4	3.9009218
191	0xbf327b88	-0.69719744
192	0x3f9206e7	1.1408356
193	0xbe86e61e	-0.2634744
194	0x40863c44	4.1948566
195	0x40b021c6	5.5041227
196	0xbf103c24	-0.5634177
197	0xbe323302	-0.1740227
198	0xc04b864d	-3.180072
199	0x3da1eefe	0.07906912
200	0xc0cbe2e9	-6.371449
201	0x3e7a2390	0.24427629
202	0xc099a032	-4.800805
203	0xc01c7696	-2.444738
204	0xc00dedf9	-2.2176497
205	0xc10c1987	-8.756232
206	0x40d9df6c	6.808523
207	0xc0db03e5	-6.8442254
208	0x3f566af0	0.83756924
209	0x3ed239c7	0.41059706
210	0xc0350621	-2.828499
211	0x40452c20	3.0808182
212	0xc046afd1	-3.104481
213	0x3fda0802	1.7033694
214	0xc0eef131	-7.4669423
215	0x3ee6b184	0.4505731
216	0x3dd46352	0.10370506
217	0xc0216dfb	-2.5223377
218	0xbf799016	-0.9748548
219	0xc0847cb0	-4.1402206
220	0x40996d9b	4.7946296
221	0xc00d996e	-2.2124896
222	0xbfae85e0	-1.3634605
223	0x3f916ce5	1.1361357
224	0x3f2e02ac	0.67972827
225	0x3e6ee1b5	0.23328288
226	0xc0815607	-4.0417514
227	0xc0ac3da0	-5.3825226
228	0xbe844cce	-0.25839847
229	0xbfc966c4	-1.5734487
230	0x400b44a0	2.1760635
231	0xc0673ea3	-3.613198
232	0xbebd8226	-0.37013358
233	0x411ce5d7	9.806113
234	0x40592bc5	3.3932965
235	0xbf5ee755	-0.87071735
236	0x3e8fddcc	0.28098905
237	0xc1293b35	-10.576955
238	0xbfe83db9	-1.8143836
239	0x40116ade	2.2721477
240	0xc02611a3	-2.5948265
241	0xbf35ec72	-0.7106391
242	0xbfb6e4ef	-1.4288615
243	0xbd226e1c	-0.03965579
244	0xc006702b	-2.1005962
245	0x40407ccc	3.007617
246	0xc0671fdf	-3.6113203
247	0x4031ce2c	2.7782087
248	0x3f8b8d40	1.0902481
249	0xc08c3815	-4.381846
250	0xc08564dd	-4.1685624
251	0x3ff37f79	1.9023277
252	0xc0621cb0	-3.533001
253	0x4080aabd	4.020842
254	0xc066e534	-3.6077394
255	0x40105152	2.2549634
