original_motion_optim_inversion_old/8500_inverse_optim.pth (torch, 29907 bytes, 1 tensors)

W f4 [1, 14, 512]
0	0xc0f6189d	-7.6905046
1	0x3f2d44cb	0.67683095
2	0x41076e84	8.464481
3	0x3fd11f69	1.6337711
4	0xc080738c	-4.014105
5	0xbfd8826d	-1.6914803
6	0x3f9af4f8	1.2106009
7	0x400fa913	2.2446945
8	0xc00026d2	-2.0023694
9	0x40239c98	2.5564327
10	0x3f9a7441	1.2066728
11	0xbfa27bb4	-1.2694001
12	0xbee5269f	-0.44756028
13	0x3fb1990a	1.3874829
14	0x402c9f0c	2.6972075
15	0xc06f2fe9	-3.7372992
16	0xc00c68b1	-2.1938899
17	0xc020a81f	-2.5102613
18	0xc0163e4c	-2.3475523
19	0xbf4f0fd9	-0.80883557
20	0xbfcb27ab	-1.5871481
21	0xbf9d2dcf	-1.2279605
22	0x402398dd	2.556205
23	0x40304e43	2.7547767
24	0xbff4bd97	-1.9120358
25	0x3fa008b0	1.2502651
26	0xbf2cdb19	-0.67521816
27	0x40f2d8dd	7.5889726
28	0xbf926b7e	-1.1439054
29	0xbf417921	-0.75575453
30	0x4084829a	4.1409426
31	0x3fb7ed3c	1.4369273
32	0xc0d286ac	-6.5789394
33	0x3f51dadc	0.8197458
34	0xc016ddff	-2.3572996
35	0x3fca3b77	1.5799397
36	0xc0c757d8	-6.229473
37	0x40b1e702	5.559449
38	0x3e16b445	0.14717205
39	0x3ebb3273	0.36561927
40	0x3e9231c9	0.28553608
41	0x3d27b4b3	0.040943813
42	0xc0199420	-2.3996658
43	0x3fb4d915	1.4128748
44	0xbf4201d5	-0.75784045
45	0x3d23cadb	0.03998838
46	0xc03f3455	-2.987569
47	0xc09c08dc	-4.8760815
48	0xbfaa8834	-1.3322816
49	0xbe95a9e9	-0.29231194
50	0xc02b8a10	-2.6803017
51	0xc0b7aa76	-5.739558
52	0xbf7c6c82	-0.9860307
53	0xc0a6a037	-5.2070575
54	0xbe17db61	-0.1482978
55	0xc02dca5a	-2.7154756
56	0x408b1fa4	4.3476124
57	0xc10ad5a7	-8.677161
58	0xbd936c7e	-0.071984276
59	0xbeef5516	-0.46744603
60	0xbfdf0a6e	-1.7425058
61	0xc0e51e32	-7.159936
62	0xbda375e4	-0.0798147
63	0xc0a3507a	-5.103574
64	0xc0202dbd	-2.5027916
65	0x40380394	2.8752184
66	0xbf64d9bd	-0.8939474
67	0xbf2c4953	-0.67299384
68	0xbf176d70	-0.59151363
69	0xbffd0986	-1.9768531
70	0x4053a913	3.3071945
71	0xbf81c16a	-1.013715
72	0x3e749bd1	0.23887564
73	0xbe8a4665	-0.27006832
74	0x400125fd	2.0179436
75	0x3f4de456	0.8042654
76	0x3eadcf57	0.3394725
77	0x404b0b06	3.1725478
78	0x4048c284	3.1368723
79	0xbf893fac	-1.0722556
80	0xc0557d14	-3.3357592
81	0xc018a84d	-2.3852723
82	0xbf5a750f	-0.8533487
83	0xbf4415d5	-0.76595813
84	0x3fc85cf9	1.5653373
85	0x3f0fe61a	0.5621048
86	0xbf23e145	-0.6401561
87	0xc0b90af0	-5.782585
88	0x40ae27cc	5.442358
89	0x4048cd1f	3.1375196
90	0xc00ec6e5	-2.2308896
91	0x40b748a9	5.7276196
92	0x403ef139	2.983473
93	0xc0c309df	-6.094955
94	0xbfba9606	-1.4577034
95	0x40443923	3.0659873
96	0x4021e770	2.5297508
97	0x3f90c3d3	1.1309761
98	0x3fee0582	1.8595431
99	0x40cbd750	6.3700333
100	0x4009720f	2.1475866
101	0x3fc727b7	1.5558995
102	0x40de7e66	6.9529295
103	0xbfe03951	-1.7517492
104	0xc0d276c6	-6.5769987
105	0xbfa9ae48	-1.3256311
106	0x3e73ddae	0.23815033
107	0xbe440a53	-0.19144563
108	0xc11c7ed0	-9.78096
109	0x3f145e7f	0.5795669
110	0xc047786a	-3.1167245
111	0x4034f04c	2.8271666
112	0xbea896a7	-0.3292744
113	0xbf71508a	-0.9426352
114	0x3cff96ff	0.03119993
115	0x3cad0673	0.02112124
116	0xc08ef57b	-4.467466
117	0x407943d3	3.8947647
118	0x40936e57	4.607219
119	0xbf235c51	-0.6381274
120	0x409e4ff4	4.94726
121	0x40995c12	4.792489
122	0x404c572f	3.1928213
123	0x4085608e	4.1680365
124	0x4070d36a	3.7629037
125	0x40956cdf	4.66954
126	0xc08a269f	-4.3172145
127	0xc07987f6	-3.8989234
128	0xc0ca4abd	-6.3216233
129	0x3f0b7496	0.5447477
130	0xbf8cc56b	-1.0997747
131	0xbf8b64c3	-1.0890125
132	0x40fa908a	7.830144
133	0x3fefd270	1.8736095
134	0x403b5f00	2.9276733
135	0x3e7933ee	0.24336216
136	0xc0ae4b39	-5.4466825
137	0xbf3bc9f8	-0.73355055
138	0xbfe8013e	-1.8125379
139	0xbf6f1ccb	-0.9340331
140	0x40932dc0	4.5993347
141	0x4008b5ed	2.1361039
142	0x3f90df87	1.1318215
143	0x3fbaa742	1.4582293
144	0x3ed8778b	0.42278704
145	0x3fa81e7b	1.3134302
146	0xbf0ffd67	-0.56246036
147	0x3ea1e88e	0.31622738
148	0xbf1d637f	-0.61479944
149	0xc0adcb3f	-5.4310603
150	0x40ca878b	6.329046
151	0xbfedcfbc	-1.857902
152	0xbf762b1b	-0.96159524
153	0x4114d1a3	9.301181
154	0x400a49e3	2.1607597
155	0x3ec6e4cd	0.38846436
156	0xbf482f03	-0.78196734
157	0x3f5d1915	0.863664
158	0xbffb1a9f	-1.9617499
159	0xbbb02d49	-0.005376492
160	0xc0656d17	-3.5847833
161	0xbf8f30c0	-1.1186752
162	0x3f1621ac	0.5864513
163	0x409f066a	4.969533
164	0xc03910c2	-2.8916478
165	0x4048c3a0	3.13694
166	0xbecd0045	-0.40039268
167	0xc04d3a46	-3.2066817
168	0xbe476cd9	-0.19475116
169	0x3d0a0a53	0.033701252
170	0xbfc9fad5	-1.5779673
171	0x4048f295	3.139806
172	0xbfec9ffa	-1.8486321
173	0xbf56c07d	-0.83887464
174	0x40876b71	4.2318654
175	0x3fed2921	1.8528177
176	0x3fea6db5	1.831473
177	0x408bb244	4.365511
178	0xbf2be8c8	-0.6715207
179	0x402dfb03	2.7184455
180	0xbe0c7b44	-0.13718897
181	0x40485857	3.1303918
182	0xc0619aec	-3.5250807
183	0x3e81acfb	0.25327286
184	0xbfc9d39f	-1.5767707
185	0x3fe4a12e	1.7861688
186	0x40be8aa2	5.954423
187	0xc03ee24d	-2.9825623
188	0xc0bb0f63	-5.8456283
189	0xbffe5ed3	-1.9872688
190	0x40814d35	4.0406747
191	0xbf3e41e3	-0.74319285
192	0x3f6fbc2d	0.9364651
193	0xbec97dfc	-0.3935393
194	0x4084fe98	4.1560783
195	0x40b83d30	5.757469
196	0xbf1ea344	-0.61967874
197	0xbd9ae6f9	-0.07563586
198	0xc05068d4	-3.2563982
199	0xbdab3690	-0.08360016
200	0xc0d9acd4	-6.802347
201	0x3dd2a82b	0.10285982
202	0xc0a592fb	-5.174192
203	0xbff88e22	-1.9418375
204	0xc00f2b50	-2.2370186
205	0xc109da36	-8.615774
206	0x40de0509	6.9381146
207	0xc0e2367c	-7.069151
208	0x3f5d9d28	0.86567926
209	0x3eb0e4cd	0.3454956
210	0xc02ccfaa	-2.7001748
211	0x4040fea3	3.0155418
212	0xc05011cb	-3.251086
213	0x3fd2299f	1.6418952
214	0xc0f3c462	-7.6177225
215	0x3f05c417	0.52252334
216	0x3e64ab60	0.22331
217	0xc022542b	-2.5363872
218	0xbf83c045	-1.0293051
219	0xc072f45f	-3.7961652
220	0x40a28ece	5.079932
221	0xc01d1152	-2.4541821
222	0xbfb72324	-1.4307599
223	0x3f898a02	1.0745242
224	0x3f34bc09	0.7059942
225	0x3e2a0872	0.16604784
226	0xc0853e65	-4.1638665
227	0xc0c38597	-6.1100574
228	0xbf82df03	-1.0224308
229	0xbfca9e0b	-1.5829481
230	0x4000eaaa	2.0143228
231	0xc05a5c22	-3.4118733
232	0xbf3220a1	-0.6958104
233	0x411f0c79	9.940545
234	0x4057068d	3.3597748
235	0xbf6e1f0d	-0.9301613
236	0x3e3c4ab1	0.18387868
237	0xc12f431b	-10.953883
238	0xbffbb247	-1.9663781
239	0x401258ee	2.2866778
240	0xc02b9627	-2.6810396
241	0xbf189e31	-0.5961638
242	0xbfb2e616	-1.3976467
243	0xbd160370	-0.036624372
244	0xc00244bc	-2.0354452
245	0x402228b4	2.5337343
246	0xc07d9e3f	-3.9627836
247	0x40340d02	2.813294
248	0x3fa31dda	1.2743485
249	0xc08c00fe	-4.375121
250	0xc0873eb9	-4.2264066
251	0x3fe49024	1.7856488
252	0xc06a14a5	-3.65751
253	0x407d68d3	3.959523
254	0xc057a1a7	-3.3692415
255	0x40317d7f	2.7732847
