original_motion_optim_inversion_old/9000_inverse_optim.pth (torch, 29907 bytes, 1 tensors)

W f4 [1, 14, 512]
-7.771525 0.41228962 8.645582 1.6177156 -3.9093087 -1.5425555 1.136146 2.5077827
-1.906007 2.424238 1.1862197 -1.3918386 -0.44209877 1.4924117 2.8136039 -3.9624481
-2.2893932 -2.876488 -2.6570723 -1.0540428 -1.3603157 -1.1818035 2.7425966 2.6999948
-2.064044 1.1771863 -0.71671546 7.7786555 -1.0418997 -0.6720573 3.997619 1.3158693
-6.8852463 0.6867722 -2.6568317 1.8188614 -6.3114944 5.5486355 0.11565501 0.23957467
0.26944214 -0.058327463 -2.5265667 1.5768948 -0.72634894 0.0056416024 -3.4250443 -5.096725
-1.3696609 -0.27532068 -2.677191 -5.720918 -1.140075 -5.0499444 -0.0984853 -2.6979246
4.0287952 -9.161149 0.03820617 -0.5145202 -2.1118336 -7.035727 0.20620304 -5.3442636
-2.1314216 3.1697392 -0.5386068 -0.71363014 -0.57277894 -1.835438 3.827207 -1.2367742
0.22819501 -0.2233716 2.3393075 0.9388626 0.3506942 3.3010252 3.270313 -1.2251955
-3.3373344 -2.201569 -0.41225857 -0.62177503 1.4477711 0.5490323 -0.40817413 -5.8551736
5.6348853 3.291823 -2.3847854 5.8172083 3.2234983 -6.198308 -1.6220348 3.0339034
2.5828922 0.9851758 2.0271068 6.1671424 2.0970464 1.4916055 6.5478086 -1.5047032
-6.6962166 -1.0977982 0.2189895 0.29863444 -10.06711 0.5141589 -3.5199933 2.9663944
-0.55440784 -0.84538716 -0.05317613 0.07531381 -4.436345 4.160378 4.4519625 -0.70796806
4.9754143 4.719844 2.8221362 4.306663 3.5476167 4.4980745 -4.1522927 -3.8157458
-6.573883 0.5961066 -1.3231608 -1.3897419 8.188877 2.1677172 2.8704922 0.06173374
-5.231768 -0.96293 -2.2166674 -1.0747808 4.3612204 2.0737107 1.0088596 0.8580411
0.60059214 1.2947255 -0.6339134 0.39557374 -0.49024954 -5.3269863 5.86389 -1.7154274
-0.9830092 9.202529 2.3257017 0.6333926 -0.82426953 0.89649254 -2.2950559 0.24294381
-3.4979665 -1.1878127 0.63216513 5.3097973 -2.9843192 2.7457368 -0.3074259 -3.37065
-0.3487585 0.091105 -1.6213305 3.247061 -1.7313856 -0.60637534 4.2084017 1.8043298
2.0533235 4.621505 -0.74841464 2.849111 -0.06222288 3.3164485 -3.9057567 0.08029083
-1.5806786 1.5882192 5.8873377 -3.1983955 -5.929566 -2.0960805 4.0616765 -0.8176633
0.5792506 -0.50010103 4.0716767 5.9049253 -0.6625717 0.11963955 -3.2369263 0.158085
-6.9054427 -0.014605738 -5.59212 -1.7884676 -2.1721992 -8.672451 7.009485 -6.9825873
0.9352698 0.46703452 -2.836151 3.0842764 -3.32233 1.5201555 -7.5221324 0.78916395
0.4566707 -2.5007908 -1.1374662 -3.935571 5.2847433 -2.7292244 -1.455441 1.257784
0.8598057 0.235467 -4.246346 -6.8285146 -1.566322 -1.6838595 1.9385428 -3.3497078
-0.89743483 10.156907 3.42795 -0.8370431 -0.04088782 -11.088645 -2.0849614 2.3631132
-2.6154056 -0.5188531 -1.5356871 -0.047444165 -2.0268452 2.174214 -4.1589646 2.7397838
1.536096 -4.7106524 -4.2170234 1.4803255 -4.105044 4.111591 -3.271736 3.0613747
00000000: 55b0 f8c0 a017 d33e 4e54 0a41 4e11 cf3f
00000010: 1d32 7ac0 7572 c5bf 3b6d 913f 837f 2040
00000020: 0af8 f3bf b726 1b40 0cd6 973f c427 b2bf
00000030: c55a e2be 5907 bf3f 1612 3440 c098 7dc0
00000040: 6b85 12c0 6118 38c0 790d 2ac0 e0ea 86bf
00000050: d31e aebf 5645 97bf b486 2f40 b7cc 2c40
00000060: 4c19 04c0 0aae 963f aa7a 37bf bfea f840
00000070: f85c 85bf f20b 2cbf fdd8 7f40 686e a83f
00000080: f053 dcc0 4ed0 2f3f 8809 2ac0 73d0 e83f
00000090: c3f7 c9c0 6c8e b140 89dc ec3d 1053 753e
000000a0: 52f4 893e c7e8 6ebd 45b3 21c0 b0d7 c93f
000000b0: 01f2 39bf 31dd b83b ed33 5bc0 5f18 a3c0
000000c0: 0c51 afbf d5f6 8cbe 1957 2bc0 c311 b7c0
000000d0: faed 91bf 2599 a1c0 a9b2 c9bd ccaa 2cc0
000000e0: e4eb 8040 1194 12c1 137e 1c3d 99b7 03bf
000000f0: 4828 07c0 ad24 e1c0 e426 533e 3504 abc0
00000100: 3669 08c0 02dd 4a40 23e2 09bf 77b0 36bf
00000110: a4a1 12bf a2ef eabf f6f0 7440 9e4e 9ebf
00000120: f4ab 693e 86bb 64be 37b7 1540 4d59 703f
00000130: 318e b33e ff43 5340 cf4c 5140 35d3 9cbf
00000140: e396 55c0 82e6 0cc0 8e13 d3be a62c 1fbf
00000150: 9050 b93f 618d 0c3f 33fc d0be 955d bbc0
00000160: fb50 b440 3aad 5240 53a0 18c0 9226 ba40
00000170: cc4d 4e40 8a58 c6c0 d69e cfbf 792b 4240
00000180: 1b4e 2540 7b34 7c3f 1ebc 0140 3b59 c540
00000190: 0236 0640 eeec be3f a687 d140 1d9a c0bf
000001a0: 6847 d6c0 a784 8cbf c93e 603e 9de6 983e
000001b0: e212 21c1 eb9f 033f 9247 61c0 68d9 3d40
000001c0: aced 0dbf 4b6b 58bf 37cf 59bd 203e 9a3d
000001d0: 8af6 8dc0 d121 8540 7a76 8e40 653d 35bf
000001e0: 9836 9f40 f608 9740 e19d 3440 2fd0 8940
000001f0: 270c 6340 3af0 8f40 95df 84c0 2e35 74c0
00000200: 405d d2c0 719a 183f 555d a9bf 10e3 b1bf
00000210: a405 0341 e1bb 0a40 25b6 3740 85dc 7c3d
00000220: a56a a7c0 9582 76bf e1dd 0dc0 6b92 89bf
00000230: 1e8f 8b40 adb7 0440 5022 813f 95a8 5b3f
00000240: 68c0 193f 91b9 a53f 2648 22bf a488 ca3e
00000250: fd01 fbbe ac76 aac0 fda4 bb40 2093 dbbf
00000260: 7ea6 7bbf 8f3d 1341 4cd8 1440 0426 223f
00000270: 5403 53bf 8980 653f 32e2 12c0 43c6 783e
00000280: afde 5fc0 3f0a 98bf 93d5 213f dce9 a940
00000290: 16ff 3ec0 27ba 2f40 ed66 9dbe bbb8 57c0
000002a0: 7990 b2be 4295 ba3d c287 cfbf d9cf 4f40
000002b0: 0b9e ddbf 6a3b 1bbf 3aab 8640 47f4 e63f
000002c0: a769 0340 5ee3 9340 1a98 3fbf d657 3640
000002d0: 6bdd 7ebd b140 5440 ebf7 79c0 856f a43d
000002e0: ad53 cabf c44a cb3f 1265 bc40 83b2 4cc0
000002f0: 01bf bdc0 2f26 06c0 41f9 8140 6252 51bf
00000300: c449 143f 9f06 00bf 2d4b 8240 26f5 bc40
00000310: 4d9e 29bf 9505 f53d cd29 4fc0 09e1 213e
00000320: 63f9 dcc0 e84c 6fbc a6f2 b2c0 82ec e4bf
00000330: 5005 0bc0 5cc2 0ac1 b34d e040 5b71 dfc0
00000340: d76d 6f3f 261f ef3e 7f83 35c0 c964 4540
00000350: 0ea1 54c0 7594 c23f 4fb5 f0c0 a606 4a3f
00000360: bed0 e93e f50c 20c0 7e98 91bf 65e0 7bc0
00000370: 9e1c a940 9dab 2ec0 e44b babf 11ff a03f
00000380: 3a1c 5c3f 431e 713e 11e2 87c0 3183 dac0
00000390: 3d7d c8bf b588 d7bf 2c22 f83f 9d61 56c0
000003a0: 4abe 65bf b182 2241 8863 5b40 7548 56bf
000003b0: fd79 27bd 176b 31c1 0270 05c0 3f3d 1740
000003c0: ce62 27c0 8fd3 04bf 6591 c4bf d054 42bd
000003d0: d5b7 01c0 5226 0b40 3d16 85c0 9e58 2f40
000003e0: cb9e c43f aabd 96c0 dbf1 86c0 4e7b bd3f
000003f0: 855c 83c0 2792 8340 1f64 51c0 90ed 4340
