original_motion_optim_inversion_old/9500_inverse_optim.pth (torch, 29907 bytes, 1 tensors)

W f4 [1, 14, 512]
00000000: d416 f8c0 734c a33e fe27 0f41 a8d3 eb3f
00000010: 6631 76c0 7f72 bfbf 6253 7b3f 629e 3b40
00000020: c00b 00c0 d9c6 1b40 77c0 b43f dd14 b3bf
00000030: b179 b1be 47e7 ab3f 2a42 2940 9ba8 7fc0
00000040: eb94 1cc0 a1fb 44c0 92e9 25c0 1ede 93bf
00000050: c8fc 95bf 99c3 a3bf 594b 2f40 1f61 2440
00000060: 791c 0cc0 e9df ad3f ee0c 24bf 0c19 0041
00000070: 84ce 6dbf 60b8 0bbf 8197 7a40 0f93 943f
00000080: e2a5 e5c0 492d 133f 83df 40c0 b926 0340
00000090: fc8f c8c0 51ee b240 bc95 0a3e 1ab7 40be
000000a0: 1436 433e cf89 80bd b983 30c0 1fdd dd3f
000000b0: f553 42bf 5627 a43d 3707 83c0 8fed a3c0
000000c0: e16a a5bf 99d6 babe 7b4d 28c0 6e80 bec0
000000d0: 3a3b 9fbf c292 a3c0 9c6b 3ebe 967c 34c0
000000e0: 9d93 6240 3e3d 1cc1 fadf 673e abe0 36bf
000000f0: fcb8 0ec0 65ba dbc0 0e9f c03e a010 b2c0
00000100: 630d 14c0 b55a 4b40 d129 ffbe ba27 2dbf
00000110: cded 00bf a7c2 dabf 069d 7940 d014 adbf
00000120: a9b5 f33d 6591 62be ba65 2640 7be7 473f
00000130: 07d9 c53e c072 6040 b398 5840 33e4 98bf
00000140: eeff 56c0 da90 09c0 bcc7 2b3e 845d 2dbf
00000150: b979 c03f 5ed2 153f ca42 abbe d0d2 c3c0
00000160: f1b8 bd40 3e8c 5a40 afa2 17c0 c308 b740
00000170: 3560 5440 e977 cbc0 25d9 cfbf 711d 3940
00000180: 7e73 2c40 342e 6a3f ad7b 0640 e5a0 c140
00000190: 18ea 0340 5d35 af3f 49b4 d140 1a16 85bf
000001a0: 935c d9c0 8eeb 48bf 43e2 153e 3bd7 283f
000001b0: e555 23c1 4960 2e3f 2387 63c0 20b7 3d40
000001c0: d346 5abf ee1f 2bbf 29fd 30bd fa3b 4dbd
000001d0: bd59 8ac0 1902 8c40 8b35 8e40 1d60 3dbf
000001e0: 36c0 9b40 f509 9840 270d 2640 95d4 8c40
000001f0: 57f2 5e40 c192 9140 6943 84c0 7b5e 80c0
00000200: 9e0e e4c0 580a 163f e139 e8bf fa75 c0bf
00000210: d5f1 0341 f6ed 1440 b646 3540 70d8 f53d
00000220: 3d16 a7c0 913d 6cbf 9e0e 1ac0 c883 9abf
00000230: b4b8 8840 2700 0340 1e05 bc3f 487c d83e
00000240: 2190 313f c128 b03f 9aec 32bf 7f1b 183e
00000250: 388d 06bf 455a acc0 a511 b840 3f43 ebbf
00000260: c711 8fbf d37f 1541 9a3e 1f40 9a97 603f
00000270: fdf4 80bf 8e39 873f 45d7 19c0 6654 023f
00000280: fc83 5ec0 42ec 9bbf 0f38 203f 2fb1 b240
00000290: 358b 41c0 5d53 2a40 4221 813d c59a 55c0
000002a0: 5aa2 bfbe 34fc 8d3d 4fd2 e2bf a1a3 5740
000002b0: 9c9a dcbf e516 c4be 8d44 7640 4529 e03f
000002c0: f5d3 0740 e3ec 9540 df3a 46bf acbc 4540
000002d0: 803a e1bd e7eb 5540 db0b 85c0 cc8f 17bd
000002e0: 3769 b9bf dfd7 db3f 365b b940 5cf2 49c0
000002f0: 7191 bdc0 10d8 0bc0 08b2 7d40 dc7e 67bf
00000300: 2690 ef3e 2509 fabe 6c5b 8440 f01e be40
00000310: b2f9 31bf 21e2 b13e 1e7d 4dc0 997d f7bc
00000320: 7dc7 e0c0 c18c 82bd de91 b7c0 e4d9 cfbf
00000330: 514c 0bc0 a279 08c1 8849 e940 be7a dac0
00000340: a03d 4d3f 7997 103f df57 37c0 83b7 5540
00000350: 1392 56c0 b345 b23f 3e5d 01c1 c772 6a3f
00000360: c1fa 0a3e 28ec 18c0 ef1e 98bf 0990 78c0
00000370: be4b b540 ab75 52c0 40e2 d2bf cc6b b43f
00000380: 3023 923f c96a b03e 7ac2 8ec0 f38a e5c0
00000390: 7579 d6bf 2188 03c0 f526 e63f bc2b 56c0
000003a0: 1a49 4abf 0bcb 2341 4cb3 4a40 1da9 38bf
000003b0: a368 09be 733c 34c1 0937 18c0 086d 0640
000003c0: fd8c 20c0 2381 dbbe 8ef7 dabf 0f9f 143e
000003d0: 4843 0bc0 29de d43f 7407 8ac0 2a73 3440
000003e0: 4d99 d03f 3bbe a0c0 ec57 8cc0 17cc cc3f
000003f0: f67e 91c0 8ac1 8240 3d22 51c0 5307 5e40
-7.7527866 0.31894264 8.947264 1.8423967 -3.846765 -1.4956816 0.9817411 2.931542
-2.0007172 2.4340117 1.4121236 -1.3990742 -0.34663156 1.3429955 2.6446633 -3.9946659
-2.4465892 -3.0778582 -2.592381 -1.155216 -1.1717768 -1.2794067 2.7389739 2.5684278
-2.1892378 1.3583957 -0.6408223 8.006115 -0.9289324 -0.5457821 3.915497 1.1607379
-7.1764994 0.57490975 -3.013642 2.0492384 -6.267576 5.5915914 0.13533682 -0.18819848
0.19063598 -0.06276285 -2.7580397 1.7333106 -0.7590936 0.08015315 -4.0946307 -5.122749
-1.2923242 -0.3649185 -2.629729 -5.9531775 -1.243995 -5.111665 -0.18595737 -2.8201041
3.5402596 -9.764952 0.22644034 -0.71436566 -2.2300406 -6.8665032 0.3762135 -5.5645294
-2.313317 3.1774113 -0.4983659 -0.6763874 -0.50362855 -1.7090653 3.900209 -1.3521976
0.11899883 -0.22125776 2.599959 0.78087586 0.3864214 3.5070038 3.38432 -1.1944641
-3.3593707 -2.149466 0.16775411 -0.6772082 1.5037147 0.5852412 -0.33449394 -6.119484
5.928826 3.4148097 -2.3693044 5.7198195 3.318372 -6.3583875 -1.6238142 2.892422
2.694549 0.9147675 2.1012986 6.0508904 2.061163 1.368816 6.5532575 -1.039737
-6.7925506 -0.7848443 0.14637093 0.65953416 -10.20847 0.6811567 -3.555123 2.964302
-0.8526432 -0.66845596 -0.043210182 -0.050106026 -4.3234544 4.375256 4.444036 -0.7397478
4.8672132 4.7512155 2.5945528 4.40095 3.4835413 4.5491643 -4.133229 -4.0115333
-7.1267843 0.58609533 -1.8142663 -1.5036004 8.246541 2.327024 2.8324409 0.12004173
-5.2214646 -0.9228144 -2.4071422 -1.2071466 4.272547 2.0468843 1.4689062 0.4228232
0.6936055 1.3762437 -0.69892275 0.14854239 -0.5255923 -5.386019 5.752154 -1.8379897
-1.11773 9.343707 2.488196 0.87731326 -1.0074764 1.0564439 -2.403764 0.5091003
-3.4768057 -1.2181475 0.6258554 5.584129 -3.0241215 2.661338 0.063051715 -3.3375714
-0.37428552 0.069328696 -1.7720431 3.369362 -1.7234683 -0.38298717 3.847934 1.7512594
2.1223118 4.685167 -0.7743358 3.0896406 -0.10997486 3.3425233 -4.157697 -0.03700237
-1.4485234 1.7175254 5.792384 -3.1554174 -5.924004 -2.1850624 3.9639912 -0.9042795
0.46789664 -0.48835102 4.13616 5.9412766 -0.6952163 0.34742835 -3.2107615 -0.030211257
-7.0243516 -0.06374503 -5.736556 -1.623837 -2.176533 -8.5296955 7.290226 -6.827483
0.8017216 0.5648113 -2.8647382 3.3393257 -3.3526657 1.392752 -8.085264 0.91581386
0.13572218 -2.3894138 -1.188444 -3.8837912 5.665496 -3.288432 -1.6475296 1.4095397
1.1416988 0.3445647 -4.46124 -7.1732116 -1.6755816 -2.0551836 1.7980639 -3.3464193
-0.79017794 10.237071 3.1671934 -0.72133046 -0.13418822 -11.264758 -2.378359 2.1004047
-2.5086052 -0.4287196 -1.7106798 0.14513801 -2.1759815 1.6630298 -4.31341 2.819529
1.6296784 -5.0232215 -4.3857327 1.5999783 -4.546748 4.0861254 -3.2677147 3.469197
